node {
  name: "parallel_read/filenames/Const"
  op: "Const"
  attr {
    key: "dtype"
    value {
      type: DT_STRING
    }
  }
  attr {
    key: "value"
    value {
      tensor {
        dtype: DT_STRING
        tensor_shape {
          dim {
            size: 128
          }
        }
        string_val: "…"
        string_val: "…"
        string_val: "…"
        string_val: "…"
        string_val: "…"
        string_val: "…"
        string_val: "…"
        string_val: "…"
        string_val: "…"
        string_val: "…"
        string_val: "…"
        string_val: "…"
        string_val: "…"
        string_val: "…"
        string_val: "…"
        string_val: "…"
        string_val: "…"
        string_val: "…"
        string_val: "…"
        string_val: "…"
        string_val: "…"
        string_val: "…"
        string_val: "…"
        string_val: "…"
        string_val: "…"
        string_val: "…"
        string_val: "…"
        string_val: "…"
        string_val: "…"
        string_val: "…"
        string_val: "…"
        string_val: "…"
        string_val: "…"
        string_val: "…"
        string_val: "…"
        string_val: "…"
        string_val: "…"
        string_val: "…"
        string_val: "…"
        string_val: "…"
        string_val: "…"
        string_val: "…"
        string_val: "…"
        string_val: "…"
        string_val: "…"
        string_val: "…"
        string_val: "…"
        string_val: "…"
        string_val: "…"
        string_val: "…"
        string_val: "…"
        string_val: "…"
        string_val: "…"
        string_val: "…"
        string_val: "…"
        string_val: "…"
        string_val: "…"
        string_val: "…"
        string_val: "…"
        string_val: "…"
        string_val: "…"
        string_val: "…"
        string_val: "…"
        string_val: "…"
        string_val: "…"
        string_val: "…"
        string_val: "…"
        string_val: "…"
        string_val: "…"
        string_val: "…"
        string_val: "…"
        string_val: "…"
        string_val: "…"
        string_val: "…"
        string_val: "…"
        string_val: "…"
        string_val: "…"
        string_val: "…"
        string_val: "…"
        string_val: "…"
        string_val: "…"
        string_val: "…"
        string_val: "…"
        string_val: "…"
        string_val: "…"
        string_val: "…"
        string_val: "…"
        string_val: "…"
        string_val: "…"
        string_val: "…"
        string_val: "…"
        string_val: "…"
        string_val: "…"
        string_val: "…"
        string_val: "…"
        string_val: "…"
        string_val: "…"
        string_val: "…"
        string_val: "…"
        string_val: "…"
        string_val: "…"
        string_val: "…"
        string_val: "…"
        string_val: "…"
        string_val: "…"
        string_val: "…"
        string_val: "…"
        string_val: "…"
        string_val: "…"
        string_val: "…"
        string_val: "…"
        string_val: "…"
        string_val: "…"
        string_val: "…"
        string_val: "…"
        string_val: "…"
        string_val: "…"
        string_val: "…"
        string_val: "…"
        string_val: "…"
        string_val: "…"
        string_val: "…"
        string_val: "…"
        string_val: "…"
        string_val: "…"
        string_val: "…"
        string_val: "…"
        string_val: "…"
      }
    }
  }
}
node {
  name: "parallel_read/filenames/Size"
  op: "Const"
  attr {
    key: "dtype"
    value {
      type: DT_INT32
    }
  }
  attr {
    key: "value"
    value {
      tensor {
        dtype: DT_INT32
        tensor_shape {
        }
        int_val: 128
      }
    }
  }
}
node {
  name: "parallel_read/filenames/Greater/y"
  op: "Const"
  attr {
    key: "dtype"
    value {
      type: DT_INT32
    }
  }
  attr {
    key: "value"
    value {
      tensor {
        dtype: DT_INT32
        tensor_shape {
        }
        int_val: 0
      }
    }
  }
}
node {
  name: "parallel_read/filenames/Greater"
  op: "Greater"
  input: "parallel_read/filenames/Size"
  input: "parallel_read/filenames/Greater/y"
  attr {
    key: "T"
    value {
      type: DT_INT32
    }
  }
}
node {
  name: "parallel_read/filenames/Assert/Const"
  op: "Const"
  attr {
    key: "dtype"
    value {
      type: DT_STRING
    }
  }
  attr {
    key: "value"
    value {
      tensor {
        dtype: DT_STRING
        tensor_shape {
        }
        string_val: "string_input_producer requires a non-null input tensor"
      }
    }
  }
}
node {
  name: "parallel_read/filenames/Assert/Assert/data_0"
  op: "Const"
  attr {
    key: "dtype"
    value {
      type: DT_STRING
    }
  }
  attr {
    key: "value"
    value {
      tensor {
        dtype: DT_STRING
        tensor_shape {
        }
        string_val: "string_input_producer requires a non-null input tensor"
      }
    }
  }
}
node {
  name: "parallel_read/filenames/Assert/Assert"
  op: "Assert"
  input: "parallel_read/filenames/Greater"
  input: "parallel_read/filenames/Assert/Assert/data_0"
  attr {
    key: "T"
    value {
      list {
        type: DT_STRING
      }
    }
  }
  attr {
    key: "summarize"
    value {
      i: 3
    }
  }
}
node {
  name: "parallel_read/filenames/Identity"
  op: "Identity"
  input: "parallel_read/filenames/Const"
  input: "^parallel_read/filenames/Assert/Assert"
  attr {
    key: "T"
    value {
      type: DT_STRING
    }
  }
}
node {
  name: "parallel_read/filenames"
  op: "FIFOQueueV2"
  attr {
    key: "capacity"
    value {
      i: 32
    }
  }
  attr {
    key: "component_types"
    value {
      list {
        type: DT_STRING
      }
    }
  }
  attr {
    key: "container"
    value {
      s: ""
    }
  }
  attr {
    key: "shapes"
    value {
      list {
        shape {
        }
      }
    }
  }
  attr {
    key: "shared_name"
    value {
      s: ""
    }
  }
}
node {
  name: "parallel_read/filenames/filenames_EnqueueMany"
  op: "QueueEnqueueManyV2"
  input: "parallel_read/filenames"
  input: "parallel_read/filenames/Identity"
  attr {
    key: "Tcomponents"
    value {
      list {
        type: DT_STRING
      }
    }
  }
  attr {
    key: "timeout_ms"
    value {
      i: -1
    }
  }
}
node {
  name: "parallel_read/filenames/filenames_Close"
  op: "QueueCloseV2"
  input: "parallel_read/filenames"
  attr {
    key: "cancel_pending_enqueues"
    value {
      b: false
    }
  }
}
node {
  name: "parallel_read/filenames/filenames_Close_1"
  op: "QueueCloseV2"
  input: "parallel_read/filenames"
  attr {
    key: "cancel_pending_enqueues"
    value {
      b: true
    }
  }
}
node {
  name: "parallel_read/filenames/filenames_Size"
  op: "QueueSizeV2"
  input: "parallel_read/filenames"
}
node {
  name: "parallel_read/filenames/ToFloat"
  op: "Cast"
  input: "parallel_read/filenames/filenames_Size"
  attr {
    key: "DstT"
    value {
      type: DT_FLOAT
    }
  }
  attr {
    key: "SrcT"
    value {
      type: DT_INT32
    }
  }
}
node {
  name: "parallel_read/filenames/mul/y"
  op: "Const"
  attr {
    key: "dtype"
    value {
      type: DT_FLOAT
    }
  }
  attr {
    key: "value"
    value {
      tensor {
        dtype: DT_FLOAT
        tensor_shape {
        }
        float_val: 0.03125
      }
    }
  }
}
node {
  name: "parallel_read/filenames/mul"
  op: "Mul"
  input: "parallel_read/filenames/ToFloat"
  input: "parallel_read/filenames/mul/y"
  attr {
    key: "T"
    value {
      type: DT_FLOAT
    }
  }
}
node {
  name: "parallel_read/filenames/fraction_of_32_full/tags"
  op: "Const"
  attr {
    key: "dtype"
    value {
      type: DT_STRING
    }
  }
  attr {
    key: "value"
    value {
      tensor {
        dtype: DT_STRING
        tensor_shape {
        }
        string_val: "parallel_read/filenames/fraction_of_32_full"
      }
    }
  }
}
node {
  name: "parallel_read/filenames/fraction_of_32_full"
  op: "ScalarSummary"
  input: "parallel_read/filenames/fraction_of_32_full/tags"
  input: "parallel_read/filenames/mul"
  attr {
    key: "T"
    value {
      type: DT_FLOAT
    }
  }
}
node {
  name: "parallel_read/common_queue"
  op: "FIFOQueueV2"
  attr {
    key: "capacity"
    value {
      i: 256
    }
  }
  attr {
    key: "component_types"
    value {
      list {
        type: DT_STRING
        type: DT_STRING
      }
    }
  }
  attr {
    key: "container"
    value {
      s: ""
    }
  }
  attr {
    key: "shapes"
    value {
      list {
      }
    }
  }
  attr {
    key: "shared_name"
    value {
      s: ""
    }
  }
}
node {
  name: "parallel_read/common_queue_Size"
  op: "QueueSizeV2"
  input: "parallel_read/common_queue"
}
node {
  name: "parallel_read/ToFloat"
  op: "Cast"
  input: "parallel_read/common_queue_Size"
  attr {
    key: "DstT"
    value {
      type: DT_FLOAT
    }
  }
  attr {
    key: "SrcT"
    value {
      type: DT_INT32
    }
  }
}
node {
  name: "parallel_read/mul/y"
  op: "Const"
  attr {
    key: "dtype"
    value {
      type: DT_FLOAT
    }
  }
  attr {
    key: "value"
    value {
      tensor {
        dtype: DT_FLOAT
        tensor_shape {
        }
        float_val: 0.00390625
      }
    }
  }
}
node {
  name: "parallel_read/mul"
  op: "Mul"
  input: "parallel_read/ToFloat"
  input: "parallel_read/mul/y"
  attr {
    key: "T"
    value {
      type: DT_FLOAT
    }
  }
}
node {
  name: "parallel_read/fraction_of_256_full/tags"
  op: "Const"
  attr {
    key: "dtype"
    value {
      type: DT_STRING
    }
  }
  attr {
    key: "value"
    value {
      tensor {
        dtype: DT_STRING
        tensor_shape {
        }
        string_val: "parallel_read/fraction_of_256_full"
      }
    }
  }
}
node {
  name: "parallel_read/fraction_of_256_full"
  op: "ScalarSummary"
  input: "parallel_read/fraction_of_256_full/tags"
  input: "parallel_read/mul"
  attr {
    key: "T"
    value {
      type: DT_FLOAT
    }
  }
}
node {
  name: "parallel_read/TFRecordReaderV2"
  op: "TFRecordReaderV2"
  attr {
    key: "compression_type"
    value {
      s: ""
    }
  }
  attr {
    key: "container"
    value {
      s: ""
    }
  }
  attr {
    key: "shared_name"
    value {
      s: ""
    }
  }
}
node {
  name: "parallel_read/ReaderReadV2"
  op: "ReaderReadV2"
  input: "parallel_read/TFRecordReaderV2"
  input: "parallel_read/filenames"
}
node {
  name: "parallel_read/common_queue_enqueue"
  op: "QueueEnqueueV2"
  input: "parallel_read/common_queue"
  input: "parallel_read/ReaderReadV2"
  input: "parallel_read/ReaderReadV2:1"
  attr {
    key: "Tcomponents"
    value {
      list {
        type: DT_STRING
        type: DT_STRING
      }
    }
  }
  attr {
    key: "timeout_ms"
    value {
      i: -1
    }
  }
}
node {
  name: "parallel_read/common_queue_Close"
  op: "QueueCloseV2"
  input: "parallel_read/common_queue"
  attr {
    key: "cancel_pending_enqueues"
    value {
      b: false
    }
  }
}
node {
  name: "parallel_read/common_queue_Close_1"
  op: "QueueCloseV2"
  input: "parallel_read/common_queue"
  attr {
    key: "cancel_pending_enqueues"
    value {
      b: true
    }
  }
}
node {
  name: "parallel_read/common_queue_Dequeue"
  op: "QueueDequeueV2"
  input: "parallel_read/common_queue"
  attr {
    key: "component_types"
    value {
      list {
        type: DT_STRING
        type: DT_STRING
      }
    }
  }
  attr {
    key: "timeout_ms"
    value {
      i: -1
    }
  }
}
node {
  name: "ParseSingleExample/key_image/class/label"
  op: "Const"
  attr {
    key: "dtype"
    value {
      type: DT_INT64
    }
  }
  attr {
    key: "value"
    value {
      tensor {
        dtype: DT_INT64
        tensor_shape {
        }
        int64_val: -1
      }
    }
  }
}
node {
  name: "ParseSingleExample/Reshape/shape"
  op: "Const"
  attr {
    key: "dtype"
    value {
      type: DT_INT32
    }
  }
  attr {
    key: "value"
    value {
      tensor {
        dtype: DT_INT32
        tensor_shape {
          dim {
            size: 1
          }
        }
        int_val: 1
      }
    }
  }
}
node {
  name: "ParseSingleExample/Reshape"
  op: "Reshape"
  input: "ParseSingleExample/key_image/class/label"
  input: "ParseSingleExample/Reshape/shape"
  attr {
    key: "T"
    value {
      type: DT_INT64
    }
  }
  attr {
    key: "Tshape"
    value {
      type: DT_INT32
    }
  }
}
node {
  name: "ParseSingleExample/key_image/class/text"
  op: "Const"
  attr {
    key: "dtype"
    value {
      type: DT_STRING
    }
  }
  attr {
    key: "value"
    value {
      tensor {
        dtype: DT_STRING
        tensor_shape {
        }
        string_val: ""
      }
    }
  }
}
node {
  name: "ParseSingleExample/Reshape_1/shape"
  op: "Const"
  attr {
    key: "dtype"
    value {
      type: DT_INT32
    }
  }
  attr {
    key: "value"
    value {
      tensor {
        dtype: DT_INT32
        tensor_shape {
          dim {
          }
        }
      }
    }
  }
}
node {
  name: "ParseSingleExample/Reshape_1"
  op: "Reshape"
  input: "ParseSingleExample/key_image/class/text"
  input: "ParseSingleExample/Reshape_1/shape"
  attr {
    key: "T"
    value {
      type: DT_STRING
    }
  }
  attr {
    key: "Tshape"
    value {
      type: DT_INT32
    }
  }
}
node {
  name: "ParseSingleExample/key_image/encoded"
  op: "Const"
  attr {
    key: "dtype"
    value {
      type: DT_STRING
    }
  }
  attr {
    key: "value"
    value {
      tensor {
        dtype: DT_STRING
        tensor_shape {
        }
        string_val: ""
      }
    }
  }
}
node {
  name: "ParseSingleExample/Reshape_2/shape"
  op: "Const"
  attr {
    key: "dtype"
    value {
      type: DT_INT32
    }
  }
  attr {
    key: "value"
    value {
      tensor {
        dtype: DT_INT32
        tensor_shape {
          dim {
          }
        }
      }
    }
  }
}
node {
  name: "ParseSingleExample/Reshape_2"
  op: "Reshape"
  input: "ParseSingleExample/key_image/encoded"
  input: "ParseSingleExample/Reshape_2/shape"
  attr {
    key: "T"
    value {
      type: DT_STRING
    }
  }
  attr {
    key: "Tshape"
    value {
      type: DT_INT32
    }
  }
}
node {
  name: "ParseSingleExample/key_image/format"
  op: "Const"
  attr {
    key: "dtype"
    value {
      type: DT_STRING
    }
  }
  attr {
    key: "value"
    value {
      tensor {
        dtype: DT_STRING
        tensor_shape {
        }
        string_val: "jpeg"
      }
    }
  }
}
node {
  name: "ParseSingleExample/Reshape_3/shape"
  op: "Const"
  attr {
    key: "dtype"
    value {
      type: DT_INT32
    }
  }
  attr {
    key: "value"
    value {
      tensor {
        dtype: DT_INT32
        tensor_shape {
          dim {
          }
        }
      }
    }
  }
}
node {
  name: "ParseSingleExample/Reshape_3"
  op: "Reshape"
  input: "ParseSingleExample/key_image/format"
  input: "ParseSingleExample/Reshape_3/shape"
  attr {
    key: "T"
    value {
      type: DT_STRING
    }
  }
  attr {
    key: "Tshape"
    value {
      type: DT_INT32
    }
  }
}
node {
  name: "ParseSingleExample/ParseSingleExample"
  op: "ParseSingleExample"
  input: "parallel_read/common_queue_Dequeue:1"
  input: "ParseSingleExample/Reshape"
  input: "ParseSingleExample/Reshape_1"
  input: "ParseSingleExample/Reshape_2"
  input: "ParseSingleExample/Reshape_3"
  attr {
    key: "Tdense"
    value {
      list {
        type: DT_INT64
        type: DT_STRING
        type: DT_STRING
        type: DT_STRING
      }
    }
  }
  attr {
    key: "dense_keys"
    value {
      list {
        s: "image/class/label"
        s: "image/class/text"
        s: "image/encoded"
        s: "image/format"
      }
    }
  }
  attr {
    key: "dense_shapes"
    value {
      list {
        shape {
          dim {
            size: 1
          }
        }
        shape {
        }
        shape {
        }
        shape {
        }
      }
    }
  }
  attr {
    key: "num_sparse"
    value {
      i: 5
    }
  }
  attr {
    key: "sparse_keys"
    value {
      list {
        s: "image/object/bbox/xmax"
        s: "image/object/bbox/xmin"
        s: "image/object/bbox/ymax"
        s: "image/object/bbox/ymin"
        s: "image/object/class/label"
      }
    }
  }
  attr {
    key: "sparse_types"
    value {
      list {
        type: DT_FLOAT
        type: DT_FLOAT
        type: DT_FLOAT
        type: DT_FLOAT
        type: DT_INT64
      }
    }
  }
}
node {
  name: "Reshape/shape"
  op: "Const"
  attr {
    key: "dtype"
    value {
      type: DT_INT32
    }
  }
  attr {
    key: "value"
    value {
      tensor {
        dtype: DT_INT32
        tensor_shape {
          dim {
            size: 1
          }
        }
        int_val: 1
      }
    }
  }
}
node {
  name: "Reshape"
  op: "Reshape"
  input: "ParseSingleExample/ParseSingleExample:15"
  input: "Reshape/shape"
  attr {
    key: "T"
    value {
      type: DT_INT64
    }
  }
  attr {
    key: "Tshape"
    value {
      type: DT_INT32
    }
  }
}
node {
  name: "Reshape_1/shape"
  op: "Const"
  attr {
    key: "dtype"
    value {
      type: DT_INT32
    }
  }
  attr {
    key: "value"
    value {
      tensor {
        dtype: DT_INT32
        tensor_shape {
          dim {
          }
        }
      }
    }
  }
}
node {
  name: "Reshape_1"
  op: "Reshape"
  input: "ParseSingleExample/ParseSingleExample:16"
  input: "Reshape_1/shape"
  attr {
    key: "T"
    value {
      type: DT_STRING
    }
  }
  attr {
    key: "Tshape"
    value {
      type: DT_INT32
    }
  }
}
node {
  name: "Reshape_2/shape"
  op: "Const"
  attr {
    key: "dtype"
    value {
      type: DT_INT32
    }
  }
  attr {
    key: "value"
    value {
      tensor {
        dtype: DT_INT32
        tensor_shape {
          dim {
          }
        }
      }
    }
  }
}
node {
  name: "Reshape_2"
  op: "Reshape"
  input: "ParseSingleExample/ParseSingleExample:17"
  input: "Reshape_2/shape"
  attr {
    key: "T"
    value {
      type: DT_STRING
    }
  }
  attr {
    key: "Tshape"
    value {
      type: DT_INT32
    }
  }
}
node {
  name: "Reshape_3/shape"
  op: "Const"
  attr {
    key: "dtype"
    value {
      type: DT_INT32
    }
  }
  attr {
    key: "value"
    value {
      tensor {
        dtype: DT_INT32
        tensor_shape {
          dim {
          }
        }
      }
    }
  }
}
node {
  name: "Reshape_3"
  op: "Reshape"
  input: "ParseSingleExample/ParseSingleExample:18"
  input: "Reshape_3/shape"
  attr {
    key: "T"
    value {
      type: DT_STRING
    }
  }
  attr {
    key: "Tshape"
    value {
      type: DT_INT32
    }
  }
}
node {
  name: "Equal/y"
  op: "Const"
  attr {
    key: "dtype"
    value {
      type: DT_STRING
    }
  }
  attr {
    key: "value"
    value {
      tensor {
        dtype: DT_STRING
        tensor_shape {
        }
        string_val: "raw"
      }
    }
  }
}
node {
  name: "Equal"
  op: "Equal"
  input: "Reshape_3"
  input: "Equal/y"
  attr {
    key: "T"
    value {
      type: DT_STRING
    }
  }
}
node {
  name: "Equal_1/y"
  op: "Const"
  attr {
    key: "dtype"
    value {
      type: DT_STRING
    }
  }
  attr {
    key: "value"
    value {
      tensor {
        dtype: DT_STRING
        tensor_shape {
        }
        string_val: "RAW"
      }
    }
  }
}
node {
  name: "Equal_1"
  op: "Equal"
  input: "Reshape_3"
  input: "Equal_1/y"
  attr {
    key: "T"
    value {
      type: DT_STRING
    }
  }
}
node {
  name: "LogicalOr"
  op: "LogicalOr"
  input: "Equal"
  input: "Equal_1"
}
node {
  name: "case/preds_c"
  op: "Pack"
  input: "LogicalOr"
  attr {
    key: "N"
    value {
      i: 1
    }
  }
  attr {
    key: "T"
    value {
      type: DT_BOOL
    }
  }
  attr {
    key: "axis"
    value {
      i: 0
    }
  }
}
node {
  name: "case/Cast"
  op: "Cast"
  input: "case/preds_c"
  attr {
    key: "DstT"
    value {
      type: DT_INT32
    }
  }
  attr {
    key: "SrcT"
    value {
      type: DT_BOOL
    }
  }
}
node {
  name: "case/Const"
  op: "Const"
  attr {
    key: "dtype"
    value {
      type: DT_INT32
    }
  }
  attr {
    key: "value"
    value {
      tensor {
        dtype: DT_INT32
        tensor_shape {
          dim {
            size: 1
          }
        }
        int_val: 0
      }
    }
  }
}
node {
  name: "case/num_true_conds"
  op: "Sum"
  input: "case/Cast"
  input: "case/Const"
  attr {
    key: "T"
    value {
      type: DT_INT32
    }
  }
  attr {
    key: "Tidx"
    value {
      type: DT_INT32
    }
  }
  attr {
    key: "keep_dims"
    value {
      b: false
    }
  }
}
node {
  name: "case/n_true_conds"
  op: "Const"
  attr {
    key: "dtype"
    value {
      type: DT_INT32
    }
  }
  attr {
    key: "value"
    value {
      tensor {
        dtype: DT_INT32
        tensor_shape {
        }
        int_val: 1
      }
    }
  }
}
node {
  name: "case/LessEqual"
  op: "LessEqual"
  input: "case/num_true_conds"
  input: "case/n_true_conds"
  attr {
    key: "T"
    value {
      type: DT_INT32
    }
  }
}
node {
  name: "case/Assert/Const"
  op: "Const"
  attr {
    key: "dtype"
    value {
      type: DT_STRING
    }
  }
  attr {
    key: "value"
    value {
      tensor {
        dtype: DT_STRING
        tensor_shape {
        }
        string_val: "Input error: exclusive=True: more than 1 conditions (LogicalOr:0) evaluated as True:"
      }
    }
  }
}
node {
  name: "case/Assert/AssertGuard/Switch"
  op: "Switch"
  input: "case/LessEqual"
  input: "case/LessEqual"
  attr {
    key: "T"
    value {
      type: DT_BOOL
    }
  }
}
node {
  name: "case/Assert/AssertGuard/switch_t"
  op: "Identity"
  input: "case/Assert/AssertGuard/Switch:1"
  attr {
    key: "T"
    value {
      type: DT_BOOL
    }
  }
}
node {
  name: "case/Assert/AssertGuard/switch_f"
  op: "Identity"
  input: "case/Assert/AssertGuard/Switch"
  attr {
    key: "T"
    value {
      type: DT_BOOL
    }
  }
}
node {
  name: "case/Assert/AssertGuard/pred_id"
  op: "Identity"
  input: "case/LessEqual"
  attr {
    key: "T"
    value {
      type: DT_BOOL
    }
  }
}
node {
  name: "case/Assert/AssertGuard/NoOp"
  op: "NoOp"
  input: "^case/Assert/AssertGuard/switch_t"
}
node {
  name: "case/Assert/AssertGuard/control_dependency"
  op: "Identity"
  input: "case/Assert/AssertGuard/switch_t"
  input: "^case/Assert/AssertGuard/NoOp"
  attr {
    key: "T"
    value {
      type: DT_BOOL
    }
  }
  attr {
    key: "_class"
    value {
      list {
        s: "loc:@case/Assert/AssertGuard/switch_t"
      }
    }
  }
}
node {
  name: "case/Assert/AssertGuard/Assert/data_0"
  op: "Const"
  input: "^case/Assert/AssertGuard/switch_f"
  attr {
    key: "dtype"
    value {
      type: DT_STRING
    }
  }
  attr {
    key: "value"
    value {
      tensor {
        dtype: DT_STRING
        tensor_shape {
        }
        string_val: "Input error: exclusive=True: more than 1 conditions (LogicalOr:0) evaluated as True:"
      }
    }
  }
}
node {
  name: "case/Assert/AssertGuard/Assert"
  op: "Assert"
  input: "case/Assert/AssertGuard/Assert/Switch"
  input: "case/Assert/AssertGuard/Assert/data_0"
  input: "case/Assert/AssertGuard/Assert/Switch_1"
  attr {
    key: "T"
    value {
      list {
        type: DT_STRING
        type: DT_BOOL
      }
    }
  }
  attr {
    key: "summarize"
    value {
      i: 1
    }
  }
}
node {
  name: "case/Assert/AssertGuard/Assert/Switch"
  op: "Switch"
  input: "case/LessEqual"
  input: "case/Assert/AssertGuard/pred_id"
  attr {
    key: "T"
    value {
      type: DT_BOOL
    }
  }
  attr {
    key: "_class"
    value {
      list {
        s: "loc:@case/LessEqual"
      }
    }
  }
}
node {
  name: "case/Assert/AssertGuard/Assert/Switch_1"
  op: "Switch"
  input: "case/preds_c"
  input: "case/Assert/AssertGuard/pred_id"
  attr {
    key: "T"
    value {
      type: DT_BOOL
    }
  }
  attr {
    key: "_class"
    value {
      list {
        s: "loc:@case/preds_c"
      }
    }
  }
}
node {
  name: "case/Assert/AssertGuard/control_dependency_1"
  op: "Identity"
  input: "case/Assert/AssertGuard/switch_f"
  input: "^case/Assert/AssertGuard/Assert"
  attr {
    key: "T"
    value {
      type: DT_BOOL
    }
  }
  attr {
    key: "_class"
    value {
      list {
        s: "loc:@case/Assert/AssertGuard/switch_f"
      }
    }
  }
}
node {
  name: "case/Assert/AssertGuard/Merge"
  op: "Merge"
  input: "case/Assert/AssertGuard/control_dependency_1"
  input: "case/Assert/AssertGuard/control_dependency"
  attr {
    key: "N"
    value {
      i: 2
    }
  }
  attr {
    key: "T"
    value {
      type: DT_BOOL
    }
  }
}
node {
  name: "case/cond/Switch"
  op: "Switch"
  input: "LogicalOr"
  input: "LogicalOr"
  input: "^case/Assert/AssertGuard/Merge"
  attr {
    key: "T"
    value {
      type: DT_BOOL
    }
  }
}
node {
  name: "case/cond/switch_t"
  op: "Identity"
  input: "case/cond/Switch:1"
  attr {
    key: "T"
    value {
      type: DT_BOOL
    }
  }
}
node {
  name: "case/cond/switch_f"
  op: "Identity"
  input: "case/cond/Switch"
  attr {
    key: "T"
    value {
      type: DT_BOOL
    }
  }
}
node {
  name: "case/cond/pred_id"
  op: "Identity"
  input: "LogicalOr"
  input: "^case/Assert/AssertGuard/Merge"
  attr {
    key: "T"
    value {
      type: DT_BOOL
    }
  }
}
node {
  name: "case/cond/DecodeRaw"
  op: "DecodeRaw"
  input: "case/cond/DecodeRaw/Switch:1"
  input: "^case/Assert/AssertGuard/Merge"
  attr {
    key: "little_endian"
    value {
      b: true
    }
  }
  attr {
    key: "out_type"
    value {
      type: DT_UINT8
    }
  }
}
node {
  name: "case/cond/DecodeRaw/Switch"
  op: "Switch"
  input: "Reshape_2"
  input: "case/cond/pred_id"
  attr {
    key: "T"
    value {
      type: DT_STRING
    }
  }
  attr {
    key: "_class"
    value {
      list {
        s: "loc:@Reshape_2"
      }
    }
  }
}
node {
  name: "case/cond/is_jpeg/Substr/pos"
  op: "Const"
  input: "^case/Assert/AssertGuard/Merge"
  input: "^case/cond/switch_f"
  attr {
    key: "dtype"
    value {
      type: DT_INT32
    }
  }
  attr {
    key: "value"
    value {
      tensor {
        dtype: DT_INT32
        tensor_shape {
        }
        int_val: 0
      }
    }
  }
}
node {
  name: "case/cond/is_jpeg/Substr/len"
  op: "Const"
  input: "^case/Assert/AssertGuard/Merge"
  input: "^case/cond/switch_f"
  attr {
    key: "dtype"
    value {
      type: DT_INT32
    }
  }
  attr {
    key: "value"
    value {
      tensor {
        dtype: DT_INT32
        tensor_shape {
        }
        int_val: 3
      }
    }
  }
}
node {
  name: "case/cond/is_jpeg/Substr"
  op: "Substr"
  input: "case/cond/is_jpeg/Substr/Switch"
  input: "case/cond/is_jpeg/Substr/pos"
  input: "case/cond/is_jpeg/Substr/len"
  attr {
    key: "T"
    value {
      type: DT_INT32
    }
  }
}
node {
  name: "case/cond/is_jpeg/Substr/Switch"
  op: "Switch"
  input: "Reshape_2"
  input: "case/cond/pred_id"
  attr {
    key: "T"
    value {
      type: DT_STRING
    }
  }
  attr {
    key: "_class"
    value {
      list {
        s: "loc:@Reshape_2"
      }
    }
  }
}
node {
  name: "case/cond/is_jpeg/Equal/y"
  op: "Const"
  input: "^case/Assert/AssertGuard/Merge"
  input: "^case/cond/switch_f"
  attr {
    key: "dtype"
    value {
      type: DT_STRING
    }
  }
  attr {
    key: "value"
    value {
      tensor {
        dtype: DT_STRING
        tensor_shape {
        }
        string_val: "\377\330\377"
      }
    }
  }
}
node {
  name: "case/cond/is_jpeg/Equal"
  op: "Equal"
  input: "case/cond/is_jpeg/Substr"
  input: "case/cond/is_jpeg/Equal/y"
  attr {
    key: "T"
    value {
      type: DT_STRING
    }
  }
}
node {
  name: "case/cond/cond_jpeg/Switch"
  op: "Switch"
  input: "case/cond/is_jpeg/Equal"
  input: "case/cond/is_jpeg/Equal"
  attr {
    key: "T"
    value {
      type: DT_BOOL
    }
  }
}
node {
  name: "case/cond/cond_jpeg/switch_t"
  op: "Identity"
  input: "case/cond/cond_jpeg/Switch:1"
  attr {
    key: "T"
    value {
      type: DT_BOOL
    }
  }
}
node {
  name: "case/cond/cond_jpeg/switch_f"
  op: "Identity"
  input: "case/cond/cond_jpeg/Switch"
  attr {
    key: "T"
    value {
      type: DT_BOOL
    }
  }
}
node {
  name: "case/cond/cond_jpeg/pred_id"
  op: "Identity"
  input: "case/cond/is_jpeg/Equal"
  attr {
    key: "T"
    value {
      type: DT_BOOL
    }
  }
}
node {
  name: "case/cond/cond_jpeg/DecodeJpeg"
  op: "DecodeJpeg"
  input: "case/cond/cond_jpeg/DecodeJpeg/Switch:1"
  input: "^case/Assert/AssertGuard/Merge"
  attr {
    key: "acceptable_fraction"
    value {
      f: 1.0
    }
  }
  attr {
    key: "channels"
    value {
      i: 3
    }
  }
  attr {
    key: "dct_method"
    value {
      s: ""
    }
  }
  attr {
    key: "fancy_upscaling"
    value {
      b: true
    }
  }
  attr {
    key: "ratio"
    value {
      i: 1
    }
  }
  attr {
    key: "try_recover_truncated"
    value {
      b: false
    }
  }
}
node {
  name: "case/cond/cond_jpeg/DecodeJpeg/Switch"
  op: "Switch"
  input: "case/cond/is_jpeg/Substr/Switch"
  input: "case/cond/cond_jpeg/pred_id"
  attr {
    key: "T"
    value {
      type: DT_STRING
    }
  }
  attr {
    key: "_class"
    value {
      list {
        s: "loc:@Reshape_2"
      }
    }
  }
}
node {
  name: "case/cond/cond_jpeg/decode_image/Substr/pos"
  op: "Const"
  input: "^case/Assert/AssertGuard/Merge"
  input: "^case/cond/cond_jpeg/switch_f"
  attr {
    key: "dtype"
    value {
      type: DT_INT32
    }
  }
  attr {
    key: "value"
    value {
      tensor {
        dtype: DT_INT32
        tensor_shape {
        }
        int_val: 0
      }
    }
  }
}
node {
  name: "case/cond/cond_jpeg/decode_image/Substr/len"
  op: "Const"
  input: "^case/Assert/AssertGuard/Merge"
  input: "^case/cond/cond_jpeg/switch_f"
  attr {
    key: "dtype"
    value {
      type: DT_INT32
    }
  }
  attr {
    key: "value"
    value {
      tensor {
        dtype: DT_INT32
        tensor_shape {
        }
        int_val: 3
      }
    }
  }
}
node {
  name: "case/cond/cond_jpeg/decode_image/Substr"
  op: "Substr"
  input: "case/cond/cond_jpeg/decode_image/Substr/Switch"
  input: "case/cond/cond_jpeg/decode_image/Substr/pos"
  input: "case/cond/cond_jpeg/decode_image/Substr/len"
  attr {
    key: "T"
    value {
      type: DT_INT32
    }
  }
}
node {
  name: "case/cond/cond_jpeg/decode_image/Substr/Switch"
  op: "Switch"
  input: "case/cond/is_jpeg/Substr/Switch"
  input: "case/cond/cond_jpeg/pred_id"
  attr {
    key: "T"
    value {
      type: DT_STRING
    }
  }
  attr {
    key: "_class"
    value {
      list {
        s: "loc:@Reshape_2"
      }
    }
  }
}
node {
  name: "case/cond/cond_jpeg/decode_image/is_jpeg/Substr/pos"
  op: "Const"
  input: "^case/Assert/AssertGuard/Merge"
  input: "^case/cond/cond_jpeg/switch_f"
  attr {
    key: "dtype"
    value {
      type: DT_INT32
    }
  }
  attr {
    key: "value"
    value {
      tensor {
        dtype: DT_INT32
        tensor_shape {
        }
        int_val: 0
      }
    }
  }
}
node {
  name: "case/cond/cond_jpeg/decode_image/is_jpeg/Substr/len"
  op: "Const"
  input: "^case/Assert/AssertGuard/Merge"
  input: "^case/cond/cond_jpeg/switch_f"
  attr {
    key: "dtype"
    value {
      type: DT_INT32
    }
  }
  attr {
    key: "value"
    value {
      tensor {
        dtype: DT_INT32
        tensor_shape {
        }
        int_val: 3
      }
    }
  }
}
node {
  name: "case/cond/cond_jpeg/decode_image/is_jpeg/Substr"
  op: "Substr"
  input: "case/cond/cond_jpeg/decode_image/Substr/Switch"
  input: "case/cond/cond_jpeg/decode_image/is_jpeg/Substr/pos"
  input: "case/cond/cond_jpeg/decode_image/is_jpeg/Substr/len"
  attr {
    key: "T"
    value {
      type: DT_INT32
    }
  }
}
node {
  name: "case/cond/cond_jpeg/decode_image/is_jpeg/Equal/y"
  op: "Const"
  input: "^case/Assert/AssertGuard/Merge"
  input: "^case/cond/cond_jpeg/switch_f"
  attr {
    key: "dtype"
    value {
      type: DT_STRING
    }
  }
  attr {
    key: "value"
    value {
      tensor {
        dtype: DT_STRING
        tensor_shape {
        }
        string_val: "\377\330\377"
      }
    }
  }
}
node {
  name: "case/cond/cond_jpeg/decode_image/is_jpeg/Equal"
  op: "Equal"
  input: "case/cond/cond_jpeg/decode_image/is_jpeg/Substr"
  input: "case/cond/cond_jpeg/decode_image/is_jpeg/Equal/y"
  attr {
    key: "T"
    value {
      type: DT_STRING
    }
  }
}
node {
  name: "case/cond/cond_jpeg/decode_image/cond_jpeg/Switch"
  op: "Switch"
  input: "case/cond/cond_jpeg/decode_image/is_jpeg/Equal"
  input: "case/cond/cond_jpeg/decode_image/is_jpeg/Equal"
  attr {
    key: "T"
    value {
      type: DT_BOOL
    }
  }
}
node {
  name: "case/cond/cond_jpeg/decode_image/cond_jpeg/switch_t"
  op: "Identity"
  input: "case/cond/cond_jpeg/decode_image/cond_jpeg/Switch:1"
  attr {
    key: "T"
    value {
      type: DT_BOOL
    }
  }
}
node {
  name: "case/cond/cond_jpeg/decode_image/cond_jpeg/switch_f"
  op: "Identity"
  input: "case/cond/cond_jpeg/decode_image/cond_jpeg/Switch"
  attr {
    key: "T"
    value {
      type: DT_BOOL
    }
  }
}
node {
  name: "case/cond/cond_jpeg/decode_image/cond_jpeg/pred_id"
  op: "Identity"
  input: "case/cond/cond_jpeg/decode_image/is_jpeg/Equal"
  attr {
    key: "T"
    value {
      type: DT_BOOL
    }
  }
}
node {
  name: "case/cond/cond_jpeg/decode_image/cond_jpeg/check_jpeg_channels/x"
  op: "Const"
  input: "^case/Assert/AssertGuard/Merge"
  input: "^case/cond/cond_jpeg/decode_image/cond_jpeg/switch_t"
  attr {
    key: "dtype"
    value {
      type: DT_INT32
    }
  }
  attr {
    key: "value"
    value {
      tensor {
        dtype: DT_INT32
        tensor_shape {
        }
        int_val: 3
      }
    }
  }
}
node {
  name: "case/cond/cond_jpeg/decode_image/cond_jpeg/check_jpeg_channels/y"
  op: "Const"
  input: "^case/Assert/AssertGuard/Merge"
  input: "^case/cond/cond_jpeg/decode_image/cond_jpeg/switch_t"
  attr {
    key: "dtype"
    value {
      type: DT_INT32
    }
  }
  attr {
    key: "value"
    value {
      tensor {
        dtype: DT_INT32
        tensor_shape {
        }
        int_val: 4
      }
    }
  }
}
node {
  name: "case/cond/cond_jpeg/decode_image/cond_jpeg/check_jpeg_channels"
  op: "NotEqual"
  input: "case/cond/cond_jpeg/decode_image/cond_jpeg/check_jpeg_channels/x"
  input: "case/cond/cond_jpeg/decode_image/cond_jpeg/check_jpeg_channels/y"
  attr {
    key: "T"
    value {
      type: DT_INT32
    }
  }
}
node {
  name: "case/cond/cond_jpeg/decode_image/cond_jpeg/Assert/Const"
  op: "Const"
  input: "^case/Assert/AssertGuard/Merge"
  input: "^case/cond/cond_jpeg/decode_image/cond_jpeg/switch_t"
  attr {
    key: "dtype"
    value {
      type: DT_STRING
    }
  }
  attr {
    key: "value"
    value {
      tensor {
        dtype: DT_STRING
        tensor_shape {
        }
        string_val: "Channels must be in (None, 0, 1, 3) when decoding JPEG images"
      }
    }
  }
}
node {
  name: "case/cond/cond_jpeg/decode_image/cond_jpeg/Assert/Assert/data_0"
  op: "Const"
  input: "^case/Assert/AssertGuard/Merge"
  input: "^case/cond/cond_jpeg/decode_image/cond_jpeg/switch_t"
  attr {
    key: "dtype"
    value {
      type: DT_STRING
    }
  }
  attr {
    key: "value"
    value {
      tensor {
        dtype: DT_STRING
        tensor_shape {
        }
        string_val: "Channels must be in (None, 0, 1, 3) when decoding JPEG images"
      }
    }
  }
}
node {
  name: "case/cond/cond_jpeg/decode_image/cond_jpeg/Assert/Assert"
  op: "Assert"
  input: "case/cond/cond_jpeg/decode_image/cond_jpeg/check_jpeg_channels"
  input: "case/cond/cond_jpeg/decode_image/cond_jpeg/Assert/Assert/data_0"
  attr {
    key: "T"
    value {
      list {
        type: DT_STRING
      }
    }
  }
  attr {
    key: "summarize"
    value {
      i: 3
    }
  }
}
node {
  name: "case/cond/cond_jpeg/decode_image/cond_jpeg/DecodeJpeg"
  op: "DecodeJpeg"
  input: "case/cond/cond_jpeg/decode_image/cond_jpeg/DecodeJpeg/Switch:1"
  input: "^case/Assert/AssertGuard/Merge"
  input: "^case/cond/cond_jpeg/decode_image/cond_jpeg/Assert/Assert"
  attr {
    key: "acceptable_fraction"
    value {
      f: 1.0
    }
  }
  attr {
    key: "channels"
    value {
      i: 3
    }
  }
  attr {
    key: "dct_method"
    value {
      s: ""
    }
  }
  attr {
    key: "fancy_upscaling"
    value {
      b: true
    }
  }
  attr {
    key: "ratio"
    value {
      i: 1
    }
  }
  attr {
    key: "try_recover_truncated"
    value {
      b: false
    }
  }
}
node {
  name: "case/cond/cond_jpeg/decode_image/cond_jpeg/DecodeJpeg/Switch"
  op: "Switch"
  input: "case/cond/cond_jpeg/decode_image/Substr/Switch"
  input: "case/cond/cond_jpeg/decode_image/cond_jpeg/pred_id"
  attr {
    key: "T"
    value {
      type: DT_STRING
    }
  }
  attr {
    key: "_class"
    value {
      list {
        s: "loc:@Reshape_2"
      }
    }
  }
}
node {
  name: "case/cond/cond_jpeg/decode_image/cond_jpeg/is_png/y"
  op: "Const"
  input: "^case/Assert/AssertGuard/Merge"
  input: "^case/cond/cond_jpeg/decode_image/cond_jpeg/switch_f"
  attr {
    key: "dtype"
    value {
      type: DT_STRING
    }
  }
  attr {
    key: "value"
    value {
      tensor {
        dtype: DT_STRING
        tensor_shape {
        }
        string_val: "\211PN"
      }
    }
  }
}
node {
  name: "case/cond/cond_jpeg/decode_image/cond_jpeg/is_png"
  op: "Equal"
  input: "case/cond/cond_jpeg/decode_image/cond_jpeg/is_png/Switch"
  input: "case/cond/cond_jpeg/decode_image/cond_jpeg/is_png/y"
  attr {
    key: "T"
    value {
      type: DT_STRING
    }
  }
}
node {
  name: "case/cond/cond_jpeg/decode_image/cond_jpeg/is_png/Switch"
  op: "Switch"
  input: "case/cond/cond_jpeg/decode_image/Substr"
  input: "case/cond/cond_jpeg/decode_image/cond_jpeg/pred_id"
  attr {
    key: "T"
    value {
      type: DT_STRING
    }
  }
  attr {
    key: "_class"
    value {
      list {
        s: "loc:@case/cond/cond_jpeg/decode_image/Substr"
      }
    }
  }
}
node {
  name: "case/cond/cond_jpeg/decode_image/cond_jpeg/cond_png/Switch"
  op: "Switch"
  input: "case/cond/cond_jpeg/decode_image/cond_jpeg/is_png"
  input: "case/cond/cond_jpeg/decode_image/cond_jpeg/is_png"
  attr {
    key: "T"
    value {
      type: DT_BOOL
    }
  }
}
node {
  name: "case/cond/cond_jpeg/decode_image/cond_jpeg/cond_png/switch_t"
  op: "Identity"
  input: "case/cond/cond_jpeg/decode_image/cond_jpeg/cond_png/Switch:1"
  attr {
    key: "T"
    value {
      type: DT_BOOL
    }
  }
}
node {
  name: "case/cond/cond_jpeg/decode_image/cond_jpeg/cond_png/switch_f"
  op: "Identity"
  input: "case/cond/cond_jpeg/decode_image/cond_jpeg/cond_png/Switch"
  attr {
    key: "T"
    value {
      type: DT_BOOL
    }
  }
}
node {
  name: "case/cond/cond_jpeg/decode_image/cond_jpeg/cond_png/pred_id"
  op: "Identity"
  input: "case/cond/cond_jpeg/decode_image/cond_jpeg/is_png"
  attr {
    key: "T"
    value {
      type: DT_BOOL
    }
  }
}
node {
  name: "case/cond/cond_jpeg/decode_image/cond_jpeg/cond_png/DecodePng"
  op: "DecodePng"
  input: "case/cond/cond_jpeg/decode_image/cond_jpeg/cond_png/DecodePng/Switch_1:1"
  input: "^case/Assert/AssertGuard/Merge"
  attr {
    key: "channels"
    value {
      i: 3
    }
  }
  attr {
    key: "dtype"
    value {
      type: DT_UINT8
    }
  }
}
node {
  name: "case/cond/cond_jpeg/decode_image/cond_jpeg/cond_png/DecodePng/Switch"
  op: "Switch"
  input: "case/cond/cond_jpeg/decode_image/Substr/Switch"
  input: "case/cond/cond_jpeg/decode_image/cond_jpeg/pred_id"
  attr {
    key: "T"
    value {
      type: DT_STRING
    }
  }
  attr {
    key: "_class"
    value {
      list {
        s: "loc:@Reshape_2"
      }
    }
  }
}
node {
  name: "case/cond/cond_jpeg/decode_image/cond_jpeg/cond_png/DecodePng/Switch_1"
  op: "Switch"
  input: "case/cond/cond_jpeg/decode_image/cond_jpeg/cond_png/DecodePng/Switch"
  input: "case/cond/cond_jpeg/decode_image/cond_jpeg/cond_png/pred_id"
  attr {
    key: "T"
    value {
      type: DT_STRING
    }
  }
  attr {
    key: "_class"
    value {
      list {
        s: "loc:@Reshape_2"
      }
    }
  }
}
node {
  name: "case/cond/cond_jpeg/decode_image/cond_jpeg/cond_png/is_gif/y"
  op: "Const"
  input: "^case/Assert/AssertGuard/Merge"
  input: "^case/cond/cond_jpeg/decode_image/cond_jpeg/cond_png/switch_f"
  attr {
    key: "dtype"
    value {
      type: DT_STRING
    }
  }
  attr {
    key: "value"
    value {
      tensor {
        dtype: DT_STRING
        tensor_shape {
        }
        string_val: "GIF"
      }
    }
  }
}
node {
  name: "case/cond/cond_jpeg/decode_image/cond_jpeg/cond_png/is_gif"
  op: "Equal"
  input: "case/cond/cond_jpeg/decode_image/cond_jpeg/cond_png/is_gif/Switch"
  input: "case/cond/cond_jpeg/decode_image/cond_jpeg/cond_png/is_gif/y"
  attr {
    key: "T"
    value {
      type: DT_STRING
    }
  }
}
node {
  name: "case/cond/cond_jpeg/decode_image/cond_jpeg/cond_png/is_gif/Switch"
  op: "Switch"
  input: "case/cond/cond_jpeg/decode_image/cond_jpeg/is_png/Switch"
  input: "case/cond/cond_jpeg/decode_image/cond_jpeg/cond_png/pred_id"
  attr {
    key: "T"
    value {
      type: DT_STRING
    }
  }
  attr {
    key: "_class"
    value {
      list {
        s: "loc:@case/cond/cond_jpeg/decode_image/Substr"
      }
    }
  }
}
node {
  name: "case/cond/cond_jpeg/decode_image/cond_jpeg/cond_png/cond_gif/Switch"
  op: "Switch"
  input: "case/cond/cond_jpeg/decode_image/cond_jpeg/cond_png/is_gif"
  input: "case/cond/cond_jpeg/decode_image/cond_jpeg/cond_png/is_gif"
  attr {
    key: "T"
    value {
      type: DT_BOOL
    }
  }
}
node {
  name: "case/cond/cond_jpeg/decode_image/cond_jpeg/cond_png/cond_gif/switch_t"
  op: "Identity"
  input: "case/cond/cond_jpeg/decode_image/cond_jpeg/cond_png/cond_gif/Switch:1"
  attr {
    key: "T"
    value {
      type: DT_BOOL
    }
  }
}
node {
  name: "case/cond/cond_jpeg/decode_image/cond_jpeg/cond_png/cond_gif/switch_f"
  op: "Identity"
  input: "case/cond/cond_jpeg/decode_image/cond_jpeg/cond_png/cond_gif/Switch"
  attr {
    key: "T"
    value {
      type: DT_BOOL
    }
  }
}
node {
  name: "case/cond/cond_jpeg/decode_image/cond_jpeg/cond_png/cond_gif/pred_id"
  op: "Identity"
  input: "case/cond/cond_jpeg/decode_image/cond_jpeg/cond_png/is_gif"
  attr {
    key: "T"
    value {
      type: DT_BOOL
    }
  }
}
node {
  name: "case/cond/cond_jpeg/decode_image/cond_jpeg/cond_png/cond_gif/check_gif_channels/x"
  op: "Const"
  input: "^case/Assert/AssertGuard/Merge"
  input: "^case/cond/cond_jpeg/decode_image/cond_jpeg/cond_png/cond_gif/switch_t"
  attr {
    key: "dtype"
    value {
      type: DT_INT32
    }
  }
  attr {
    key: "value"
    value {
      tensor {
        dtype: DT_INT32
        tensor_shape {
        }
        int_val: 3
      }
    }
  }
}
node {
  name: "case/cond/cond_jpeg/decode_image/cond_jpeg/cond_png/cond_gif/check_gif_channels/y"
  op: "Const"
  input: "^case/Assert/AssertGuard/Merge"
  input: "^case/cond/cond_jpeg/decode_image/cond_jpeg/cond_png/cond_gif/switch_t"
  attr {
    key: "dtype"
    value {
      type: DT_INT32
    }
  }
  attr {
    key: "value"
    value {
      tensor {
        dtype: DT_INT32
        tensor_shape {
        }
        int_val: 1
      }
    }
  }
}
node {
  name: "case/cond/cond_jpeg/decode_image/cond_jpeg/cond_png/cond_gif/check_gif_channels"
  op: "NotEqual"
  input: "case/cond/cond_jpeg/decode_image/cond_jpeg/cond_png/cond_gif/check_gif_channels/x"
  input: "case/cond/cond_jpeg/decode_image/cond_jpeg/cond_png/cond_gif/check_gif_channels/y"
  attr {
    key: "T"
    value {
      type: DT_INT32
    }
  }
}
node {
  name: "case/cond/cond_jpeg/decode_image/cond_jpeg/cond_png/cond_gif/check_gif_channels_1/x"
  op: "Const"
  input: "^case/Assert/AssertGuard/Merge"
  input: "^case/cond/cond_jpeg/decode_image/cond_jpeg/cond_png/cond_gif/switch_t"
  attr {
    key: "dtype"
    value {
      type: DT_INT32
    }
  }
  attr {
    key: "value"
    value {
      tensor {
        dtype: DT_INT32
        tensor_shape {
        }
        int_val: 3
      }
    }
  }
}
node {
  name: "case/cond/cond_jpeg/decode_image/cond_jpeg/cond_png/cond_gif/check_gif_channels_1/y"
  op: "Const"
  input: "^case/Assert/AssertGuard/Merge"
  input: "^case/cond/cond_jpeg/decode_image/cond_jpeg/cond_png/cond_gif/switch_t"
  attr {
    key: "dtype"
    value {
      type: DT_INT32
    }
  }
  attr {
    key: "value"
    value {
      tensor {
        dtype: DT_INT32
        tensor_shape {
        }
        int_val: 4
      }
    }
  }
}
node {
  name: "case/cond/cond_jpeg/decode_image/cond_jpeg/cond_png/cond_gif/check_gif_channels_1"
  op: "NotEqual"
  input: "case/cond/cond_jpeg/decode_image/cond_jpeg/cond_png/cond_gif/check_gif_channels_1/x"
  input: "case/cond/cond_jpeg/decode_image/cond_jpeg/cond_png/cond_gif/check_gif_channels_1/y"
  attr {
    key: "T"
    value {
      type: DT_INT32
    }
  }
}
node {
  name: "case/cond/cond_jpeg/decode_image/cond_jpeg/cond_png/cond_gif/LogicalAnd"
  op: "LogicalAnd"
  input: "case/cond/cond_jpeg/decode_image/cond_jpeg/cond_png/cond_gif/check_gif_channels"
  input: "case/cond/cond_jpeg/decode_image/cond_jpeg/cond_png/cond_gif/check_gif_channels_1"
}
node {
  name: "case/cond/cond_jpeg/decode_image/cond_jpeg/cond_png/cond_gif/Assert/Const"
  op: "Const"
  input: "^case/Assert/AssertGuard/Merge"
  input: "^case/cond/cond_jpeg/decode_image/cond_jpeg/cond_png/cond_gif/switch_t"
  attr {
    key: "dtype"
    value {
      type: DT_STRING
    }
  }
  attr {
    key: "value"
    value {
      tensor {
        dtype: DT_STRING
        tensor_shape {
        }
        string_val: "Channels must be in (None, 0, 3) when decoding GIF images"
      }
    }
  }
}
node {
  name: "case/cond/cond_jpeg/decode_image/cond_jpeg/cond_png/cond_gif/Assert/Assert/data_0"
  op: "Const"
  input: "^case/Assert/AssertGuard/Merge"
  input: "^case/cond/cond_jpeg/decode_image/cond_jpeg/cond_png/cond_gif/switch_t"
  attr {
    key: "dtype"
    value {
      type: DT_STRING
    }
  }
  attr {
    key: "value"
    value {
      tensor {
        dtype: DT_STRING
        tensor_shape {
        }
        string_val: "Channels must be in (None, 0, 3) when decoding GIF images"
      }
    }
  }
}
node {
  name: "case/cond/cond_jpeg/decode_image/cond_jpeg/cond_png/cond_gif/Assert/Assert"
  op: "Assert"
  input: "case/cond/cond_jpeg/decode_image/cond_jpeg/cond_png/cond_gif/LogicalAnd"
  input: "case/cond/cond_jpeg/decode_image/cond_jpeg/cond_png/cond_gif/Assert/Assert/data_0"
  attr {
    key: "T"
    value {
      list {
        type: DT_STRING
      }
    }
  }
  attr {
    key: "summarize"
    value {
      i: 3
    }
  }
}
node {
  name: "case/cond/cond_jpeg/decode_image/cond_jpeg/cond_png/cond_gif/DecodeGif"
  op: "DecodeGif"
  input: "case/cond/cond_jpeg/decode_image/cond_jpeg/cond_png/cond_gif/DecodeGif/Switch_1:1"
  input: "^case/Assert/AssertGuard/Merge"
  input: "^case/cond/cond_jpeg/decode_image/cond_jpeg/cond_png/cond_gif/Assert/Assert"
}
node {
  name: "case/cond/cond_jpeg/decode_image/cond_jpeg/cond_png/cond_gif/DecodeGif/Switch"
  op: "Switch"
  input: "case/cond/cond_jpeg/decode_image/cond_jpeg/cond_png/DecodePng/Switch"
  input: "case/cond/cond_jpeg/decode_image/cond_jpeg/cond_png/pred_id"
  attr {
    key: "T"
    value {
      type: DT_STRING
    }
  }
  attr {
    key: "_class"
    value {
      list {
        s: "loc:@Reshape_2"
      }
    }
  }
}
node {
  name: "case/cond/cond_jpeg/decode_image/cond_jpeg/cond_png/cond_gif/DecodeGif/Switch_1"
  op: "Switch"
  input: "case/cond/cond_jpeg/decode_image/cond_jpeg/cond_png/cond_gif/DecodeGif/Switch"
  input: "case/cond/cond_jpeg/decode_image/cond_jpeg/cond_png/cond_gif/pred_id"
  attr {
    key: "T"
    value {
      type: DT_STRING
    }
  }
  attr {
    key: "_class"
    value {
      list {
        s: "loc:@Reshape_2"
      }
    }
  }
}
node {
  name: "case/cond/cond_jpeg/decode_image/cond_jpeg/cond_png/cond_gif/Substr/pos"
  op: "Const"
  input: "^case/Assert/AssertGuard/Merge"
  input: "^case/cond/cond_jpeg/decode_image/cond_jpeg/cond_png/cond_gif/switch_f"
  attr {
    key: "dtype"
    value {
      type: DT_INT32
    }
  }
  attr {
    key: "value"
    value {
      tensor {
        dtype: DT_INT32
        tensor_shape {
        }
        int_val: 0
      }
    }
  }
}
node {
  name: "case/cond/cond_jpeg/decode_image/cond_jpeg/cond_png/cond_gif/Substr/len"
  op: "Const"
  input: "^case/Assert/AssertGuard/Merge"
  input: "^case/cond/cond_jpeg/decode_image/cond_jpeg/cond_png/cond_gif/switch_f"
  attr {
    key: "dtype"
    value {
      type: DT_INT32
    }
  }
  attr {
    key: "value"
    value {
      tensor {
        dtype: DT_INT32
        tensor_shape {
        }
        int_val: 2
      }
    }
  }
}
node {
  name: "case/cond/cond_jpeg/decode_image/cond_jpeg/cond_png/cond_gif/Substr"
  op: "Substr"
  input: "case/cond/cond_jpeg/decode_image/cond_jpeg/cond_png/cond_gif/Substr/Switch"
  input: "case/cond/cond_jpeg/decode_image/cond_jpeg/cond_png/cond_gif/Substr/pos"
  input: "case/cond/cond_jpeg/decode_image/cond_jpeg/cond_png/cond_gif/Substr/len"
  attr {
    key: "T"
    value {
      type: DT_INT32
    }
  }
}
node {
  name: "case/cond/cond_jpeg/decode_image/cond_jpeg/cond_png/cond_gif/Substr/Switch"
  op: "Switch"
  input: "case/cond/cond_jpeg/decode_image/cond_jpeg/cond_png/cond_gif/DecodeGif/Switch"
  input: "case/cond/cond_jpeg/decode_image/cond_jpeg/cond_png/cond_gif/pred_id"
  attr {
    key: "T"
    value {
      type: DT_STRING
    }
  }
  attr {
    key: "_class"
    value {
      list {
        s: "loc:@Reshape_2"
      }
    }
  }
}
node {
  name: "case/cond/cond_jpeg/decode_image/cond_jpeg/cond_png/cond_gif/is_bmp/y"
  op: "Const"
  input: "^case/Assert/AssertGuard/Merge"
  input: "^case/cond/cond_jpeg/decode_image/cond_jpeg/cond_png/cond_gif/switch_f"
  attr {
    key: "dtype"
    value {
      type: DT_STRING
    }
  }
  attr {
    key: "value"
    value {
      tensor {
        dtype: DT_STRING
        tensor_shape {
        }
        string_val: "BM"
      }
    }
  }
}
node {
  name: "case/cond/cond_jpeg/decode_image/cond_jpeg/cond_png/cond_gif/is_bmp"
  op: "Equal"
  input: "case/cond/cond_jpeg/decode_image/cond_jpeg/cond_png/cond_gif/Substr"
  input: "case/cond/cond_jpeg/decode_image/cond_jpeg/cond_png/cond_gif/is_bmp/y"
  attr {
    key: "T"
    value {
      type: DT_STRING
    }
  }
}
node {
  name: "case/cond/cond_jpeg/decode_image/cond_jpeg/cond_png/cond_gif/Assert_1/Const"
  op: "Const"
  input: "^case/Assert/AssertGuard/Merge"
  input: "^case/cond/cond_jpeg/decode_image/cond_jpeg/cond_png/cond_gif/switch_f"
  attr {
    key: "dtype"
    value {
      type: DT_STRING
    }
  }
  attr {
    key: "value"
    value {
      tensor {
        dtype: DT_STRING
        tensor_shape {
        }
        string_val: "Unable to decode bytes as JPEG, PNG, GIF, or BMP"
      }
    }
  }
}
node {
  name: "case/cond/cond_jpeg/decode_image/cond_jpeg/cond_png/cond_gif/Assert_1/Assert/data_0"
  op: "Const"
  input: "^case/Assert/AssertGuard/Merge"
  input: "^case/cond/cond_jpeg/decode_image/cond_jpeg/cond_png/cond_gif/switch_f"
  attr {
    key: "dtype"
    value {
      type: DT_STRING
    }
  }
  attr {
    key: "value"
    value {
      tensor {
        dtype: DT_STRING
        tensor_shape {
        }
        string_val: "Unable to decode bytes as JPEG, PNG, GIF, or BMP"
      }
    }
  }
}
node {
  name: "case/cond/cond_jpeg/decode_image/cond_jpeg/cond_png/cond_gif/Assert_1/Assert"
  op: "Assert"
  input: "case/cond/cond_jpeg/decode_image/cond_jpeg/cond_png/cond_gif/is_bmp"
  input: "case/cond/cond_jpeg/decode_image/cond_jpeg/cond_png/cond_gif/Assert_1/Assert/data_0"
  attr {
    key: "T"
    value {
      list {
        type: DT_STRING
      }
    }
  }
  attr {
    key: "summarize"
    value {
      i: 3
    }
  }
}
node {
  name: "case/cond/cond_jpeg/decode_image/cond_jpeg/cond_png/cond_gif/check_channels/x"
  op: "Const"
  input: "^case/Assert/AssertGuard/Merge"
  input: "^case/cond/cond_jpeg/decode_image/cond_jpeg/cond_png/cond_gif/switch_f"
  attr {
    key: "dtype"
    value {
      type: DT_INT32
    }
  }
  attr {
    key: "value"
    value {
      tensor {
        dtype: DT_INT32
        tensor_shape {
        }
        int_val: 3
      }
    }
  }
}
node {
  name: "case/cond/cond_jpeg/decode_image/cond_jpeg/cond_png/cond_gif/check_channels/y"
  op: "Const"
  input: "^case/Assert/AssertGuard/Merge"
  input: "^case/cond/cond_jpeg/decode_image/cond_jpeg/cond_png/cond_gif/switch_f"
  attr {
    key: "dtype"
    value {
      type: DT_INT32
    }
  }
  attr {
    key: "value"
    value {
      tensor {
        dtype: DT_INT32
        tensor_shape {
        }
        int_val: 1
      }
    }
  }
}
node {
  name: "case/cond/cond_jpeg/decode_image/cond_jpeg/cond_png/cond_gif/check_channels"
  op: "NotEqual"
  input: "case/cond/cond_jpeg/decode_image/cond_jpeg/cond_png/cond_gif/check_channels/x"
  input: "case/cond/cond_jpeg/decode_image/cond_jpeg/cond_png/cond_gif/check_channels/y"
  attr {
    key: "T"
    value {
      type: DT_INT32
    }
  }
}
node {
  name: "case/cond/cond_jpeg/decode_image/cond_jpeg/cond_png/cond_gif/Assert_2/Const"
  op: "Const"
  input: "^case/Assert/AssertGuard/Merge"
  input: "^case/cond/cond_jpeg/decode_image/cond_jpeg/cond_png/cond_gif/switch_f"
  attr {
    key: "dtype"
    value {
      type: DT_STRING
    }
  }
  attr {
    key: "value"
    value {
      tensor {
        dtype: DT_STRING
        tensor_shape {
        }
        string_val: "Channels must be in (None, 0, 3) when decoding BMP images"
      }
    }
  }
}
node {
  name: "case/cond/cond_jpeg/decode_image/cond_jpeg/cond_png/cond_gif/Assert_2/Assert/data_0"
  op: "Const"
  input: "^case/Assert/AssertGuard/Merge"
  input: "^case/cond/cond_jpeg/decode_image/cond_jpeg/cond_png/cond_gif/switch_f"
  attr {
    key: "dtype"
    value {
      type: DT_STRING
    }
  }
  attr {
    key: "value"
    value {
      tensor {
        dtype: DT_STRING
        tensor_shape {
        }
        string_val: "Channels must be in (None, 0, 3) when decoding BMP images"
      }
    }
  }
}
node {
  name: "case/cond/cond_jpeg/decode_image/cond_jpeg/cond_png/cond_gif/Assert_2/Assert"
  op: "Assert"
  input: "case/cond/cond_jpeg/decode_image/cond_jpeg/cond_png/cond_gif/check_channels"
  input: "case/cond/cond_jpeg/decode_image/cond_jpeg/cond_png/cond_gif/Assert_2/Assert/data_0"
  attr {
    key: "T"
    value {
      list {
        type: DT_STRING
      }
    }
  }
  attr {
    key: "summarize"
    value {
      i: 3
    }
  }
}
node {
  name: "case/cond/cond_jpeg/decode_image/cond_jpeg/cond_png/cond_gif/DecodeBmp"
  op: "DecodeBmp"
  input: "case/cond/cond_jpeg/decode_image/cond_jpeg/cond_png/cond_gif/Substr/Switch"
  input: "^case/Assert/AssertGuard/Merge"
  input: "^case/cond/cond_jpeg/decode_image/cond_jpeg/cond_png/cond_gif/Assert_1/Assert"
  input: "^case/cond/cond_jpeg/decode_image/cond_jpeg/cond_png/cond_gif/Assert_2/Assert"
  attr {
    key: "channels"
    value {
      i: 0
    }
  }
}
node {
  name: "case/cond/cond_jpeg/decode_image/cond_jpeg/cond_png/cond_gif/Merge"
  op: "Merge"
  input: "case/cond/cond_jpeg/decode_image/cond_jpeg/cond_png/cond_gif/DecodeBmp"
  input: "case/cond/cond_jpeg/decode_image/cond_jpeg/cond_png/cond_gif/DecodeGif"
  attr {
    key: "N"
    value {
      i: 2
    }
  }
  attr {
    key: "T"
    value {
      type: DT_UINT8
    }
  }
}
node {
  name: "case/cond/cond_jpeg/decode_image/cond_jpeg/cond_png/Merge"
  op: "Merge"
  input: "case/cond/cond_jpeg/decode_image/cond_jpeg/cond_png/cond_gif/Merge"
  input: "case/cond/cond_jpeg/decode_image/cond_jpeg/cond_png/DecodePng"
  attr {
    key: "N"
    value {
      i: 2
    }
  }
  attr {
    key: "T"
    value {
      type: DT_UINT8
    }
  }
}
node {
  name: "case/cond/cond_jpeg/decode_image/cond_jpeg/Merge"
  op: "Merge"
  input: "case/cond/cond_jpeg/decode_image/cond_jpeg/cond_png/Merge"
  input: "case/cond/cond_jpeg/decode_image/cond_jpeg/DecodeJpeg"
  attr {
    key: "N"
    value {
      i: 2
    }
  }
  attr {
    key: "T"
    value {
      type: DT_UINT8
    }
  }
}
node {
  name: "case/cond/cond_jpeg/Merge"
  op: "Merge"
  input: "case/cond/cond_jpeg/decode_image/cond_jpeg/Merge"
  input: "case/cond/cond_jpeg/DecodeJpeg"
  attr {
    key: "N"
    value {
      i: 2
    }
  }
  attr {
    key: "T"
    value {
      type: DT_UINT8
    }
  }
}
node {
  name: "case/cond/Merge"
  op: "Merge"
  input: "case/cond/cond_jpeg/Merge"
  input: "case/cond/DecodeRaw"
  attr {
    key: "N"
    value {
      i: 2
    }
  }
  attr {
    key: "T"
    value {
      type: DT_UINT8
    }
  }
}
node {
  name: "ExpandDims/dim"
  op: "Const"
  attr {
    key: "dtype"
    value {
      type: DT_INT32
    }
  }
  attr {
    key: "value"
    value {
      tensor {
        dtype: DT_INT32
        tensor_shape {
        }
        int_val: 0
      }
    }
  }
}
node {
  name: "ExpandDims"
  op: "ExpandDims"
  input: "ParseSingleExample/ParseSingleExample:8"
  input: "ExpandDims/dim"
  attr {
    key: "T"
    value {
      type: DT_FLOAT
    }
  }
  attr {
    key: "Tdim"
    value {
      type: DT_INT32
    }
  }
}
node {
  name: "ExpandDims_1/dim"
  op: "Const"
  attr {
    key: "dtype"
    value {
      type: DT_INT32
    }
  }
  attr {
    key: "value"
    value {
      tensor {
        dtype: DT_INT32
        tensor_shape {
        }
        int_val: 0
      }
    }
  }
}
node {
  name: "ExpandDims_1"
  op: "ExpandDims"
  input: "ParseSingleExample/ParseSingleExample:6"
  input: "ExpandDims_1/dim"
  attr {
    key: "T"
    value {
      type: DT_FLOAT
    }
  }
  attr {
    key: "Tdim"
    value {
      type: DT_INT32
    }
  }
}
node {
  name: "ExpandDims_2/dim"
  op: "Const"
  attr {
    key: "dtype"
    value {
      type: DT_INT32
    }
  }
  attr {
    key: "value"
    value {
      tensor {
        dtype: DT_INT32
        tensor_shape {
        }
        int_val: 0
      }
    }
  }
}
node {
  name: "ExpandDims_2"
  op: "ExpandDims"
  input: "ParseSingleExample/ParseSingleExample:7"
  input: "ExpandDims_2/dim"
  attr {
    key: "T"
    value {
      type: DT_FLOAT
    }
  }
  attr {
    key: "Tdim"
    value {
      type: DT_INT32
    }
  }
}
node {
  name: "ExpandDims_3/dim"
  op: "Const"
  attr {
    key: "dtype"
    value {
      type: DT_INT32
    }
  }
  attr {
    key: "value"
    value {
      tensor {
        dtype: DT_INT32
        tensor_shape {
        }
        int_val: 0
      }
    }
  }
}
node {
  name: "ExpandDims_3"
  op: "ExpandDims"
  input: "ParseSingleExample/ParseSingleExample:5"
  input: "ExpandDims_3/dim"
  attr {
    key: "T"
    value {
      type: DT_FLOAT
    }
  }
  attr {
    key: "Tdim"
    value {
      type: DT_INT32
    }
  }
}
node {
  name: "concat/axis"
  op: "Const"
  attr {
    key: "dtype"
    value {
      type: DT_INT32
    }
  }
  attr {
    key: "value"
    value {
      tensor {
        dtype: DT_INT32
        tensor_shape {
        }
        int_val: 0
      }
    }
  }
}
node {
  name: "concat"
  op: "ConcatV2"
  input: "ExpandDims"
  input: "ExpandDims_1"
  input: "ExpandDims_2"
  input: "ExpandDims_3"
  input: "concat/axis"
  attr {
    key: "N"
    value {
      i: 4
    }
  }
  attr {
    key: "T"
    value {
      type: DT_FLOAT
    }
  }
  attr {
    key: "Tidx"
    value {
      type: DT_INT32
    }
  }
}
node {
  name: "transpose/Rank"
  op: "Rank"
  input: "concat"
  attr {
    key: "T"
    value {
      type: DT_FLOAT
    }
  }
}
node {
  name: "transpose/sub/y"
  op: "Const"
  attr {
    key: "dtype"
    value {
      type: DT_INT32
    }
  }
  attr {
    key: "value"
    value {
      tensor {
        dtype: DT_INT32
        tensor_shape {
        }
        int_val: 1
      }
    }
  }
}
node {
  name: "transpose/sub"
  op: "Sub"
  input: "transpose/Rank"
  input: "transpose/sub/y"
  attr {
    key: "T"
    value {
      type: DT_INT32
    }
  }
}
node {
  name: "transpose/Range/start"
  op: "Const"
  attr {
    key: "dtype"
    value {
      type: DT_INT32
    }
  }
  attr {
    key: "value"
    value {
      tensor {
        dtype: DT_INT32
        tensor_shape {
        }
        int_val: 0
      }
    }
  }
}
node {
  name: "transpose/Range/delta"
  op: "Const"
  attr {
    key: "dtype"
    value {
      type: DT_INT32
    }
  }
  attr {
    key: "value"
    value {
      tensor {
        dtype: DT_INT32
        tensor_shape {
        }
        int_val: 1
      }
    }
  }
}
node {
  name: "transpose/Range"
  op: "Range"
  input: "transpose/Range/start"
  input: "transpose/Rank"
  input: "transpose/Range/delta"
  attr {
    key: "Tidx"
    value {
      type: DT_INT32
    }
  }
}
node {
  name: "transpose/sub_1"
  op: "Sub"
  input: "transpose/sub"
  input: "transpose/Range"
  attr {
    key: "T"
    value {
      type: DT_INT32
    }
  }
}
node {
  name: "transpose"
  op: "Transpose"
  input: "concat"
  input: "transpose/sub_1"
  attr {
    key: "T"
    value {
      type: DT_FLOAT
    }
  }
  attr {
    key: "Tperm"
    value {
      type: DT_INT32
    }
  }
}
node {
  name: "SparseToDense/default_value"
  op: "Const"
  attr {
    key: "dtype"
    value {
      type: DT_INT64
    }
  }
  attr {
    key: "value"
    value {
      tensor {
        dtype: DT_INT64
        tensor_shape {
        }
        int64_val: 0
      }
    }
  }
}
node {
  name: "SparseToDense"
  op: "SparseToDense"
  input: "ParseSingleExample/ParseSingleExample:4"
  input: "ParseSingleExample/ParseSingleExample:14"
  input: "ParseSingleExample/ParseSingleExample:9"
  input: "SparseToDense/default_value"
  attr {
    key: "T"
    value {
      type: DT_INT64
    }
  }
  attr {
    key: "Tindices"
    value {
      type: DT_INT64
    }
  }
  attr {
    key: "validate_indices"
    value {
      b: true
    }
  }
}
node {
  name: "eval_image/convert_image/Cast"
  op: "Cast"
  input: "case/cond/Merge"
  attr {
    key: "DstT"
    value {
      type: DT_FLOAT
    }
  }
  attr {
    key: "SrcT"
    value {
      type: DT_UINT8
    }
  }
}
node {
  name: "eval_image/convert_image/y"
  op: "Const"
  attr {
    key: "dtype"
    value {
      type: DT_FLOAT
    }
  }
  attr {
    key: "value"
    value {
      tensor {
        dtype: DT_FLOAT
        tensor_shape {
        }
        float_val: 0.00392156885937
      }
    }
  }
}
node {
  name: "eval_image/convert_image"
  op: "Mul"
  input: "eval_image/convert_image/Cast"
  input: "eval_image/convert_image/y"
  attr {
    key: "T"
    value {
      type: DT_FLOAT
    }
  }
}
node {
  name: "eval_image/central_crop/Shape"
  op: "Shape"
  input: "eval_image/convert_image"
  attr {
    key: "T"
    value {
      type: DT_FLOAT
    }
  }
  attr {
    key: "out_type"
    value {
      type: DT_INT32
    }
  }
}
node {
  name: "eval_image/central_crop/assert_positive/Const"
  op: "Const"
  attr {
    key: "dtype"
    value {
      type: DT_INT32
    }
  }
  attr {
    key: "value"
    value {
      tensor {
        dtype: DT_INT32
        tensor_shape {
        }
        int_val: 0
      }
    }
  }
}
node {
  name: "eval_image/central_crop/assert_positive/assert_less/Less"
  op: "Less"
  input: "eval_image/central_crop/assert_positive/Const"
  input: "eval_image/central_crop/Shape"
  attr {
    key: "T"
    value {
      type: DT_INT32
    }
  }
}
node {
  name: "eval_image/central_crop/assert_positive/assert_less/Const"
  op: "Const"
  attr {
    key: "dtype"
    value {
      type: DT_INT32
    }
  }
  attr {
    key: "value"
    value {
      tensor {
        dtype: DT_INT32
        tensor_shape {
          dim {
            size: 1
          }
        }
        int_val: 0
      }
    }
  }
}
node {
  name: "eval_image/central_crop/assert_positive/assert_less/All"
  op: "All"
  input: "eval_image/central_crop/assert_positive/assert_less/Less"
  input: "eval_image/central_crop/assert_positive/assert_less/Const"
  attr {
    key: "Tidx"
    value {
      type: DT_INT32
    }
  }
  attr {
    key: "keep_dims"
    value {
      b: false
    }
  }
}
node {
  name: "eval_image/central_crop/assert_positive/assert_less/Assert/Const"
  op: "Const"
  attr {
    key: "dtype"
    value {
      type: DT_STRING
    }
  }
  attr {
    key: "value"
    value {
      tensor {
        dtype: DT_STRING
        tensor_shape {
        }
        string_val: "all dims of \'image.shape\' must be > 0."
      }
    }
  }
}
node {
  name: "eval_image/central_crop/assert_positive/assert_less/Assert/Assert/data_0"
  op: "Const"
  attr {
    key: "dtype"
    value {
      type: DT_STRING
    }
  }
  attr {
    key: "value"
    value {
      tensor {
        dtype: DT_STRING
        tensor_shape {
        }
        string_val: "all dims of \'image.shape\' must be > 0."
      }
    }
  }
}
node {
  name: "eval_image/central_crop/assert_positive/assert_less/Assert/Assert"
  op: "Assert"
  input: "eval_image/central_crop/assert_positive/assert_less/All"
  input: "eval_image/central_crop/assert_positive/assert_less/Assert/Assert/data_0"
  attr {
    key: "T"
    value {
      list {
        type: DT_STRING
      }
    }
  }
  attr {
    key: "summarize"
    value {
      i: 3
    }
  }
}
node {
  name: "eval_image/central_crop/control_dependency"
  op: "Identity"
  input: "eval_image/convert_image"
  input: "^eval_image/central_crop/assert_positive/assert_less/Assert/Assert"
  attr {
    key: "T"
    value {
      type: DT_FLOAT
    }
  }
  attr {
    key: "_class"
    value {
      list {
        s: "loc:@eval_image/convert_image"
      }
    }
  }
}
node {
  name: "eval_image/central_crop/Shape_1"
  op: "Shape"
  input: "eval_image/convert_image"
  attr {
    key: "T"
    value {
      type: DT_FLOAT
    }
  }
  attr {
    key: "out_type"
    value {
      type: DT_INT32
    }
  }
}
node {
  name: "eval_image/central_crop/strided_slice/stack"
  op: "Const"
  attr {
    key: "dtype"
    value {
      type: DT_INT32
    }
  }
  attr {
    key: "value"
    value {
      tensor {
        dtype: DT_INT32
        tensor_shape {
          dim {
            size: 1
          }
        }
        int_val: 0
      }
    }
  }
}
node {
  name: "eval_image/central_crop/strided_slice/stack_1"
  op: "Const"
  attr {
    key: "dtype"
    value {
      type: DT_INT32
    }
  }
  attr {
    key: "value"
    value {
      tensor {
        dtype: DT_INT32
        tensor_shape {
          dim {
            size: 1
          }
        }
        int_val: 1
      }
    }
  }
}
node {
  name: "eval_image/central_crop/strided_slice/stack_2"
  op: "Const"
  attr {
    key: "dtype"
    value {
      type: DT_INT32
    }
  }
  attr {
    key: "value"
    value {
      tensor {
        dtype: DT_INT32
        tensor_shape {
          dim {
            size: 1
          }
        }
        int_val: 1
      }
    }
  }
}
node {
  name: "eval_image/central_crop/strided_slice"
  op: "StridedSlice"
  input: "eval_image/central_crop/Shape_1"
  input: "eval_image/central_crop/strided_slice/stack"
  input: "eval_image/central_crop/strided_slice/stack_1"
  input: "eval_image/central_crop/strided_slice/stack_2"
  attr {
    key: "Index"
    value {
      type: DT_INT32
    }
  }
  attr {
    key: "T"
    value {
      type: DT_INT32
    }
  }
  attr {
    key: "begin_mask"
    value {
      i: 0
    }
  }
  attr {
    key: "ellipsis_mask"
    value {
      i: 0
    }
  }
  attr {
    key: "end_mask"
    value {
      i: 0
    }
  }
  attr {
    key: "new_axis_mask"
    value {
      i: 0
    }
  }
  attr {
    key: "shrink_axis_mask"
    value {
      i: 1
    }
  }
}
node {
  name: "eval_image/central_crop/Shape_2"
  op: "Shape"
  input: "eval_image/convert_image"
  attr {
    key: "T"
    value {
      type: DT_FLOAT
    }
  }
  attr {
    key: "out_type"
    value {
      type: DT_INT32
    }
  }
}
node {
  name: "eval_image/central_crop/strided_slice_1/stack"
  op: "Const"
  attr {
    key: "dtype"
    value {
      type: DT_INT32
    }
  }
  attr {
    key: "value"
    value {
      tensor {
        dtype: DT_INT32
        tensor_shape {
          dim {
            size: 1
          }
        }
        int_val: 1
      }
    }
  }
}
node {
  name: "eval_image/central_crop/strided_slice_1/stack_1"
  op: "Const"
  attr {
    key: "dtype"
    value {
      type: DT_INT32
    }
  }
  attr {
    key: "value"
    value {
      tensor {
        dtype: DT_INT32
        tensor_shape {
          dim {
            size: 1
          }
        }
        int_val: 2
      }
    }
  }
}
node {
  name: "eval_image/central_crop/strided_slice_1/stack_2"
  op: "Const"
  attr {
    key: "dtype"
    value {
      type: DT_INT32
    }
  }
  attr {
    key: "value"
    value {
      tensor {
        dtype: DT_INT32
        tensor_shape {
          dim {
            size: 1
          }
        }
        int_val: 1
      }
    }
  }
}
node {
  name: "eval_image/central_crop/strided_slice_1"
  op: "StridedSlice"
  input: "eval_image/central_crop/Shape_2"
  input: "eval_image/central_crop/strided_slice_1/stack"
  input: "eval_image/central_crop/strided_slice_1/stack_1"
  input: "eval_image/central_crop/strided_slice_1/stack_2"
  attr {
    key: "Index"
    value {
      type: DT_INT32
    }
  }
  attr {
    key: "T"
    value {
      type: DT_INT32
    }
  }
  attr {
    key: "begin_mask"
    value {
      i: 0
    }
  }
  attr {
    key: "ellipsis_mask"
    value {
      i: 0
    }
  }
  attr {
    key: "end_mask"
    value {
      i: 0
    }
  }
  attr {
    key: "new_axis_mask"
    value {
      i: 0
    }
  }
  attr {
    key: "shrink_axis_mask"
    value {
      i: 1
    }
  }
}
node {
  name: "eval_image/central_crop/ToDouble"
  op: "Cast"
  input: "eval_image/central_crop/strided_slice"
  attr {
    key: "DstT"
    value {
      type: DT_DOUBLE
    }
  }
  attr {
    key: "SrcT"
    value {
      type: DT_INT32
    }
  }
}
node {
  name: "eval_image/central_crop/mul/y"
  op: "Const"
  attr {
    key: "dtype"
    value {
      type: DT_DOUBLE
    }
  }
  attr {
    key: "value"
    value {
      tensor {
        dtype: DT_DOUBLE
        tensor_shape {
        }
        double_val: 0.875
      }
    }
  }
}
node {
  name: "eval_image/central_crop/mul"
  op: "Mul"
  input: "eval_image/central_crop/ToDouble"
  input: "eval_image/central_crop/mul/y"
  attr {
    key: "T"
    value {
      type: DT_DOUBLE
    }
  }
}
node {
  name: "eval_image/central_crop/sub"
  op: "Sub"
  input: "eval_image/central_crop/ToDouble"
  input: "eval_image/central_crop/mul"
  attr {
    key: "T"
    value {
      type: DT_DOUBLE
    }
  }
}
node {
  name: "eval_image/central_crop/truediv/y"
  op: "Const"
  attr {
    key: "dtype"
    value {
      type: DT_DOUBLE
    }
  }
  attr {
    key: "value"
    value {
      tensor {
        dtype: DT_DOUBLE
        tensor_shape {
        }
        double_val: 2.0
      }
    }
  }
}
node {
  name: "eval_image/central_crop/truediv"
  op: "RealDiv"
  input: "eval_image/central_crop/sub"
  input: "eval_image/central_crop/truediv/y"
  attr {
    key: "T"
    value {
      type: DT_DOUBLE
    }
  }
}
node {
  name: "eval_image/central_crop/ToInt32"
  op: "Cast"
  input: "eval_image/central_crop/truediv"
  attr {
    key: "DstT"
    value {
      type: DT_INT32
    }
  }
  attr {
    key: "SrcT"
    value {
      type: DT_DOUBLE
    }
  }
}
node {
  name: "eval_image/central_crop/ToDouble_1"
  op: "Cast"
  input: "eval_image/central_crop/strided_slice_1"
  attr {
    key: "DstT"
    value {
      type: DT_DOUBLE
    }
  }
  attr {
    key: "SrcT"
    value {
      type: DT_INT32
    }
  }
}
node {
  name: "eval_image/central_crop/mul_1/y"
  op: "Const"
  attr {
    key: "dtype"
    value {
      type: DT_DOUBLE
    }
  }
  attr {
    key: "value"
    value {
      tensor {
        dtype: DT_DOUBLE
        tensor_shape {
        }
        double_val: 0.875
      }
    }
  }
}
node {
  name: "eval_image/central_crop/mul_1"
  op: "Mul"
  input: "eval_image/central_crop/ToDouble_1"
  input: "eval_image/central_crop/mul_1/y"
  attr {
    key: "T"
    value {
      type: DT_DOUBLE
    }
  }
}
node {
  name: "eval_image/central_crop/sub_1"
  op: "Sub"
  input: "eval_image/central_crop/ToDouble_1"
  input: "eval_image/central_crop/mul_1"
  attr {
    key: "T"
    value {
      type: DT_DOUBLE
    }
  }
}
node {
  name: "eval_image/central_crop/truediv_1/y"
  op: "Const"
  attr {
    key: "dtype"
    value {
      type: DT_DOUBLE
    }
  }
  attr {
    key: "value"
    value {
      tensor {
        dtype: DT_DOUBLE
        tensor_shape {
        }
        double_val: 2.0
      }
    }
  }
}
node {
  name: "eval_image/central_crop/truediv_1"
  op: "RealDiv"
  input: "eval_image/central_crop/sub_1"
  input: "eval_image/central_crop/truediv_1/y"
  attr {
    key: "T"
    value {
      type: DT_DOUBLE
    }
  }
}
node {
  name: "eval_image/central_crop/ToInt32_1"
  op: "Cast"
  input: "eval_image/central_crop/truediv_1"
  attr {
    key: "DstT"
    value {
      type: DT_INT32
    }
  }
  attr {
    key: "SrcT"
    value {
      type: DT_DOUBLE
    }
  }
}
node {
  name: "eval_image/central_crop/mul_2/y"
  op: "Const"
  attr {
    key: "dtype"
    value {
      type: DT_INT32
    }
  }
  attr {
    key: "value"
    value {
      tensor {
        dtype: DT_INT32
        tensor_shape {
        }
        int_val: 2
      }
    }
  }
}
node {
  name: "eval_image/central_crop/mul_2"
  op: "Mul"
  input: "eval_image/central_crop/ToInt32"
  input: "eval_image/central_crop/mul_2/y"
  attr {
    key: "T"
    value {
      type: DT_INT32
    }
  }
}
node {
  name: "eval_image/central_crop/sub_2"
  op: "Sub"
  input: "eval_image/central_crop/strided_slice"
  input: "eval_image/central_crop/mul_2"
  attr {
    key: "T"
    value {
      type: DT_INT32
    }
  }
}
node {
  name: "eval_image/central_crop/mul_3/y"
  op: "Const"
  attr {
    key: "dtype"
    value {
      type: DT_INT32
    }
  }
  attr {
    key: "value"
    value {
      tensor {
        dtype: DT_INT32
        tensor_shape {
        }
        int_val: 2
      }
    }
  }
}
node {
  name: "eval_image/central_crop/mul_3"
  op: "Mul"
  input: "eval_image/central_crop/ToInt32_1"
  input: "eval_image/central_crop/mul_3/y"
  attr {
    key: "T"
    value {
      type: DT_INT32
    }
  }
}
node {
  name: "eval_image/central_crop/sub_3"
  op: "Sub"
  input: "eval_image/central_crop/strided_slice_1"
  input: "eval_image/central_crop/mul_3"
  attr {
    key: "T"
    value {
      type: DT_INT32
    }
  }
}
node {
  name: "eval_image/central_crop/stack/2"
  op: "Const"
  attr {
    key: "dtype"
    value {
      type: DT_INT32
    }
  }
  attr {
    key: "value"
    value {
      tensor {
        dtype: DT_INT32
        tensor_shape {
        }
        int_val: 0
      }
    }
  }
}
node {
  name: "eval_image/central_crop/stack"
  op: "Pack"
  input: "eval_image/central_crop/ToInt32"
  input: "eval_image/central_crop/ToInt32_1"
  input: "eval_image/central_crop/stack/2"
  attr {
    key: "N"
    value {
      i: 3
    }
  }
  attr {
    key: "T"
    value {
      type: DT_INT32
    }
  }
  attr {
    key: "axis"
    value {
      i: 0
    }
  }
}
node {
  name: "eval_image/central_crop/stack_1/2"
  op: "Const"
  attr {
    key: "dtype"
    value {
      type: DT_INT32
    }
  }
  attr {
    key: "value"
    value {
      tensor {
        dtype: DT_INT32
        tensor_shape {
        }
        int_val: -1
      }
    }
  }
}
node {
  name: "eval_image/central_crop/stack_1"
  op: "Pack"
  input: "eval_image/central_crop/sub_2"
  input: "eval_image/central_crop/sub_3"
  input: "eval_image/central_crop/stack_1/2"
  attr {
    key: "N"
    value {
      i: 3
    }
  }
  attr {
    key: "T"
    value {
      type: DT_INT32
    }
  }
  attr {
    key: "axis"
    value {
      i: 0
    }
  }
}
node {
  name: "eval_image/central_crop/Slice"
  op: "Slice"
  input: "eval_image/convert_image"
  input: "eval_image/central_crop/stack"
  input: "eval_image/central_crop/stack_1"
  attr {
    key: "Index"
    value {
      type: DT_INT32
    }
  }
  attr {
    key: "T"
    value {
      type: DT_FLOAT
    }
  }
}
node {
  name: "eval_image/ExpandDims/dim"
  op: "Const"
  attr {
    key: "dtype"
    value {
      type: DT_INT32
    }
  }
  attr {
    key: "value"
    value {
      tensor {
        dtype: DT_INT32
        tensor_shape {
        }
        int_val: 0
      }
    }
  }
}
node {
  name: "eval_image/ExpandDims"
  op: "ExpandDims"
  input: "eval_image/central_crop/Slice"
  input: "eval_image/ExpandDims/dim"
  attr {
    key: "T"
    value {
      type: DT_FLOAT
    }
  }
  attr {
    key: "Tdim"
    value {
      type: DT_INT32
    }
  }
}
node {
  name: "eval_image/ResizeBilinear/size"
  op: "Const"
  attr {
    key: "dtype"
    value {
      type: DT_INT32
    }
  }
  attr {
    key: "value"
    value {
      tensor {
        dtype: DT_INT32
        tensor_shape {
          dim {
            size: 2
          }
        }
        tensor_content: "\340\000\000\000\340\000\000\000"
      }
    }
  }
}
node {
  name: "eval_image/ResizeBilinear"
  op: "ResizeBilinear"
  input: "eval_image/ExpandDims"
  input: "eval_image/ResizeBilinear/size"
  attr {
    key: "T"
    value {
      type: DT_FLOAT
    }
  }
  attr {
    key: "align_corners"
    value {
      b: false
    }
  }
}
node {
  name: "eval_image/Squeeze"
  op: "Squeeze"
  input: "eval_image/ResizeBilinear"
  attr {
    key: "T"
    value {
      type: DT_FLOAT
    }
  }
  attr {
    key: "squeeze_dims"
    value {
      list {
        i: 0
      }
    }
  }
}
node {
  name: "eval_image/Sub/y"
  op: "Const"
  attr {
    key: "dtype"
    value {
      type: DT_FLOAT
    }
  }
  attr {
    key: "value"
    value {
      tensor {
        dtype: DT_FLOAT
        tensor_shape {
        }
        float_val: 0.5
      }
    }
  }
}
node {
  name: "eval_image/Sub"
  op: "Sub"
  input: "eval_image/Squeeze"
  input: "eval_image/Sub/y"
  attr {
    key: "T"
    value {
      type: DT_FLOAT
    }
  }
}
node {
  name: "eval_image/Mul/y"
  op: "Const"
  attr {
    key: "dtype"
    value {
      type: DT_FLOAT
    }
  }
  attr {
    key: "value"
    value {
      tensor {
        dtype: DT_FLOAT
        tensor_shape {
        }
        float_val: 2.0
      }
    }
  }
}
node {
  name: "eval_image/Mul"
  op: "Mul"
  input: "eval_image/Sub"
  input: "eval_image/Mul/y"
  attr {
    key: "T"
    value {
      type: DT_FLOAT
    }
  }
}
node {
  name: "batch/Const"
  op: "Const"
  attr {
    key: "dtype"
    value {
      type: DT_BOOL
    }
  }
  attr {
    key: "value"
    value {
      tensor {
        dtype: DT_BOOL
        tensor_shape {
        }
        bool_val: true
      }
    }
  }
}
node {
  name: "batch/fifo_queue"
  op: "FIFOQueueV2"
  attr {
    key: "capacity"
    value {
      i: 1250
    }
  }
  attr {
    key: "component_types"
    value {
      list {
        type: DT_FLOAT
        type: DT_INT64
      }
    }
  }
  attr {
    key: "container"
    value {
      s: ""
    }
  }
  attr {
    key: "shapes"
    value {
      list {
        shape {
          dim {
            size: 224
          }
          dim {
            size: 224
          }
          dim {
            size: 3
          }
        }
        shape {
          dim {
            size: 1
          }
        }
      }
    }
  }
  attr {
    key: "shared_name"
    value {
      s: ""
    }
  }
}
node {
  name: "batch/fifo_queue_enqueue"
  op: "QueueEnqueueV2"
  input: "batch/fifo_queue"
  input: "eval_image/Mul"
  input: "Reshape"
  attr {
    key: "Tcomponents"
    value {
      list {
        type: DT_FLOAT
        type: DT_INT64
      }
    }
  }
  attr {
    key: "timeout_ms"
    value {
      i: -1
    }
  }
}
node {
  name: "batch/fifo_queue_Close"
  op: "QueueCloseV2"
  input: "batch/fifo_queue"
  attr {
    key: "cancel_pending_enqueues"
    value {
      b: false
    }
  }
}
node {
  name: "batch/fifo_queue_Close_1"
  op: "QueueCloseV2"
  input: "batch/fifo_queue"
  attr {
    key: "cancel_pending_enqueues"
    value {
      b: true
    }
  }
}
node {
  name: "batch/fifo_queue_Size"
  op: "QueueSizeV2"
  input: "batch/fifo_queue"
}
node {
  name: "batch/ToFloat"
  op: "Cast"
  input: "batch/fifo_queue_Size"
  attr {
    key: "DstT"
    value {
      type: DT_FLOAT
    }
  }
  attr {
    key: "SrcT"
    value {
      type: DT_INT32
    }
  }
}
node {
  name: "batch/mul/y"
  op: "Const"
  attr {
    key: "dtype"
    value {
      type: DT_FLOAT
    }
  }
  attr {
    key: "value"
    value {
      tensor {
        dtype: DT_FLOAT
        tensor_shape {
        }
        float_val: 0.00079999997979
      }
    }
  }
}
node {
  name: "batch/mul"
  op: "Mul"
  input: "batch/ToFloat"
  input: "batch/mul/y"
  attr {
    key: "T"
    value {
      type: DT_FLOAT
    }
  }
}
node {
  name: "batch/fraction_of_1250_full/tags"
  op: "Const"
  attr {
    key: "dtype"
    value {
      type: DT_STRING
    }
  }
  attr {
    key: "value"
    value {
      tensor {
        dtype: DT_STRING
        tensor_shape {
        }
        string_val: "batch/fraction_of_1250_full"
      }
    }
  }
}
node {
  name: "batch/fraction_of_1250_full"
  op: "ScalarSummary"
  input: "batch/fraction_of_1250_full/tags"
  input: "batch/mul"
  attr {
    key: "T"
    value {
      type: DT_FLOAT
    }
  }
}
node {
  name: "batch/n"
  op: "Const"
  attr {
    key: "dtype"
    value {
      type: DT_INT32
    }
  }
  attr {
    key: "value"
    value {
      tensor {
        dtype: DT_INT32
        tensor_shape {
        }
        int_val: 250
      }
    }
  }
}
node {
  name: "batch"
  op: "QueueDequeueManyV2"
  input: "batch/fifo_queue"
  input: "batch/n"
  attr {
    key: "component_types"
    value {
      list {
        type: DT_FLOAT
        type: DT_INT64
      }
    }
  }
  attr {
    key: "timeout_ms"
    value {
      i: -1
    }
  }
}
node {
  name: "sub/y"
  op: "Const"
  attr {
    key: "dtype"
    value {
      type: DT_INT64
    }
  }
  attr {
    key: "value"
    value {
      tensor {
        dtype: DT_INT64
        tensor_shape {
        }
        int64_val: 0
      }
    }
  }
}
node {
  name: "sub"
  op: "Sub"
  input: "batch:1"
  input: "sub/y"
  attr {
    key: "T"
    value {
      type: DT_INT64
    }
  }
}
node {
  name: "input"
  op: "Identity"
  input: "batch"
  attr {
    key: "T"
    value {
      type: DT_FLOAT
    }
  }
}
node {
  name: "MobilenetV2/input"
  op: "Identity"
  input: "input"
  attr {
    key: "T"
    value {
      type: DT_FLOAT
    }
  }
}
node {
  name: "MobilenetV2/Conv/weights/Initializer/truncated_normal/shape"
  op: "Const"
  attr {
    key: "_class"
    value {
      list {
        s: "loc:@MobilenetV2/Conv/weights"
      }
    }
  }
  attr {
    key: "dtype"
    value {
      type: DT_INT32
    }
  }
  attr {
    key: "value"
    value {
      tensor {
        dtype: DT_INT32
        tensor_shape {
          dim {
            size: 4
          }
        }
        tensor_content: "\003\000\000\000\003\000\000\000\003\000\000\000 \000\000\000"
      }
    }
  }
}
node {
  name: "MobilenetV2/Conv/weights/Initializer/truncated_normal/mean"
  op: "Const"
  attr {
    key: "_class"
    value {
      list {
        s: "loc:@MobilenetV2/Conv/weights"
      }
    }
  }
  attr {
    key: "dtype"
    value {
      type: DT_FLOAT
    }
  }
  attr {
    key: "value"
    value {
      tensor {
        dtype: DT_FLOAT
        tensor_shape {
        }
        float_val: 0.0
      }
    }
  }
}
node {
  name: "MobilenetV2/Conv/weights/Initializer/truncated_normal/stddev"
  op: "Const"
  attr {
    key: "_class"
    value {
      list {
        s: "loc:@MobilenetV2/Conv/weights"
      }
    }
  }
  attr {
    key: "dtype"
    value {
      type: DT_FLOAT
    }
  }
  attr {
    key: "value"
    value {
      tensor {
        dtype: DT_FLOAT
        tensor_shape {
        }
        float_val: 0.0900000035763
      }
    }
  }
}
node {
  name: "MobilenetV2/Conv/weights/Initializer/truncated_normal/TruncatedNormal"
  op: "TruncatedNormal"
  input: "MobilenetV2/Conv/weights/Initializer/truncated_normal/shape"
  attr {
    key: "T"
    value {
      type: DT_INT32
    }
  }
  attr {
    key: "_class"
    value {
      list {
        s: "loc:@MobilenetV2/Conv/weights"
      }
    }
  }
  attr {
    key: "dtype"
    value {
      type: DT_FLOAT
    }
  }
  attr {
    key: "seed"
    value {
      i: 0
    }
  }
  attr {
    key: "seed2"
    value {
      i: 0
    }
  }
}
node {
  name: "MobilenetV2/Conv/weights/Initializer/truncated_normal/mul"
  op: "Mul"
  input: "MobilenetV2/Conv/weights/Initializer/truncated_normal/TruncatedNormal"
  input: "MobilenetV2/Conv/weights/Initializer/truncated_normal/stddev"
  attr {
    key: "T"
    value {
      type: DT_FLOAT
    }
  }
  attr {
    key: "_class"
    value {
      list {
        s: "loc:@MobilenetV2/Conv/weights"
      }
    }
  }
}
node {
  name: "MobilenetV2/Conv/weights/Initializer/truncated_normal"
  op: "Add"
  input: "MobilenetV2/Conv/weights/Initializer/truncated_normal/mul"
  input: "MobilenetV2/Conv/weights/Initializer/truncated_normal/mean"
  attr {
    key: "T"
    value {
      type: DT_FLOAT
    }
  }
  attr {
    key: "_class"
    value {
      list {
        s: "loc:@MobilenetV2/Conv/weights"
      }
    }
  }
}
node {
  name: "MobilenetV2/Conv/weights"
  op: "VariableV2"
  attr {
    key: "_class"
    value {
      list {
        s: "loc:@MobilenetV2/Conv/weights"
      }
    }
  }
  attr {
    key: "container"
    value {
      s: ""
    }
  }
  attr {
    key: "dtype"
    value {
      type: DT_FLOAT
    }
  }
  attr {
    key: "shape"
    value {
      shape {
        dim {
          size: 3
        }
        dim {
          size: 3
        }
        dim {
          size: 3
        }
        dim {
          size: 32
        }
      }
    }
  }
  attr {
    key: "shared_name"
    value {
      s: ""
    }
  }
}
node {
  name: "MobilenetV2/Conv/weights/Assign"
  op: "Assign"
  input: "MobilenetV2/Conv/weights"
  input: "MobilenetV2/Conv/weights/Initializer/truncated_normal"
  attr {
    key: "T"
    value {
      type: DT_FLOAT
    }
  }
  attr {
    key: "_class"
    value {
      list {
        s: "loc:@MobilenetV2/Conv/weights"
      }
    }
  }
  attr {
    key: "use_locking"
    value {
      b: true
    }
  }
  attr {
    key: "validate_shape"
    value {
      b: true
    }
  }
}
node {
  name: "MobilenetV2/Conv/weights/read"
  op: "Identity"
  input: "MobilenetV2/Conv/weights"
  attr {
    key: "T"
    value {
      type: DT_FLOAT
    }
  }
  attr {
    key: "_class"
    value {
      list {
        s: "loc:@MobilenetV2/Conv/weights"
      }
    }
  }
}
node {
  name: "MobilenetV2/Conv/dilation_rate"
  op: "Const"
  attr {
    key: "dtype"
    value {
      type: DT_INT32
    }
  }
  attr {
    key: "value"
    value {
      tensor {
        dtype: DT_INT32
        tensor_shape {
          dim {
            size: 2
          }
        }
        tensor_content: "\001\000\000\000\001\000\000\000"
      }
    }
  }
}
node {
  name: "MobilenetV2/Conv/Conv2D"
  op: "Conv2D"
  input: "MobilenetV2/input"
  input: "MobilenetV2/Conv/weights/read"
  attr {
    key: "T"
    value {
      type: DT_FLOAT
    }
  }
  attr {
    key: "data_format"
    value {
      s: "NHWC"
    }
  }
  attr {
    key: "dilations"
    value {
      list {
        i: 1
        i: 1
        i: 1
        i: 1
      }
    }
  }
  attr {
    key: "padding"
    value {
      s: "SAME"
    }
  }
  attr {
    key: "strides"
    value {
      list {
        i: 1
        i: 2
        i: 2
        i: 1
      }
    }
  }
  attr {
    key: "use_cudnn_on_gpu"
    value {
      b: true
    }
  }
}
node {
  name: "MobilenetV2/Conv/BatchNorm/gamma/Initializer/ones"
  op: "Const"
  attr {
    key: "_class"
    value {
      list {
        s: "loc:@MobilenetV2/Conv/BatchNorm/gamma"
      }
    }
  }
  attr {
    key: "dtype"
    value {
      type: DT_FLOAT
    }
  }
  attr {
    key: "value"
    value {
      tensor {
        dtype: DT_FLOAT
        tensor_shape {
          dim {
            size: 32
          }
        }
        float_val: 1.0
      }
    }
  }
}
node {
  name: "MobilenetV2/Conv/BatchNorm/gamma"
  op: "VariableV2"
  attr {
    key: "_class"
    value {
      list {
        s: "loc:@MobilenetV2/Conv/BatchNorm/gamma"
      }
    }
  }
  attr {
    key: "container"
    value {
      s: ""
    }
  }
  attr {
    key: "dtype"
    value {
      type: DT_FLOAT
    }
  }
  attr {
    key: "shape"
    value {
      shape {
        dim {
          size: 32
        }
      }
    }
  }
  attr {
    key: "shared_name"
    value {
      s: ""
    }
  }
}
node {
  name: "MobilenetV2/Conv/BatchNorm/gamma/Assign"
  op: "Assign"
  input: "MobilenetV2/Conv/BatchNorm/gamma"
  input: "MobilenetV2/Conv/BatchNorm/gamma/Initializer/ones"
  attr {
    key: "T"
    value {
      type: DT_FLOAT
    }
  }
  attr {
    key: "_class"
    value {
      list {
        s: "loc:@MobilenetV2/Conv/BatchNorm/gamma"
      }
    }
  }
  attr {
    key: "use_locking"
    value {
      b: true
    }
  }
  attr {
    key: "validate_shape"
    value {
      b: true
    }
  }
}
node {
  name: "MobilenetV2/Conv/BatchNorm/gamma/read"
  op: "Identity"
  input: "MobilenetV2/Conv/BatchNorm/gamma"
  attr {
    key: "T"
    value {
      type: DT_FLOAT
    }
  }
  attr {
    key: "_class"
    value {
      list {
        s: "loc:@MobilenetV2/Conv/BatchNorm/gamma"
      }
    }
  }
}
node {
  name: "MobilenetV2/Conv/BatchNorm/beta/Initializer/zeros"
  op: "Const"
  attr {
    key: "_class"
    value {
      list {
        s: "loc:@MobilenetV2/Conv/BatchNorm/beta"
      }
    }
  }
  attr {
    key: "dtype"
    value {
      type: DT_FLOAT
    }
  }
  attr {
    key: "value"
    value {
      tensor {
        dtype: DT_FLOAT
        tensor_shape {
          dim {
            size: 32
          }
        }
        float_val: 0.0
      }
    }
  }
}
node {
  name: "MobilenetV2/Conv/BatchNorm/beta"
  op: "VariableV2"
  attr {
    key: "_class"
    value {
      list {
        s: "loc:@MobilenetV2/Conv/BatchNorm/beta"
      }
    }
  }
  attr {
    key: "container"
    value {
      s: ""
    }
  }
  attr {
    key: "dtype"
    value {
      type: DT_FLOAT
    }
  }
  attr {
    key: "shape"
    value {
      shape {
        dim {
          size: 32
        }
      }
    }
  }
  attr {
    key: "shared_name"
    value {
      s: ""
    }
  }
}
node {
  name: "MobilenetV2/Conv/BatchNorm/beta/Assign"
  op: "Assign"
  input: "MobilenetV2/Conv/BatchNorm/beta"
  input: "MobilenetV2/Conv/BatchNorm/beta/Initializer/zeros"
  attr {
    key: "T"
    value {
      type: DT_FLOAT
    }
  }
  attr {
    key: "_class"
    value {
      list {
        s: "loc:@MobilenetV2/Conv/BatchNorm/beta"
      }
    }
  }
  attr {
    key: "use_locking"
    value {
      b: true
    }
  }
  attr {
    key: "validate_shape"
    value {
      b: true
    }
  }
}
node {
  name: "MobilenetV2/Conv/BatchNorm/beta/read"
  op: "Identity"
  input: "MobilenetV2/Conv/BatchNorm/beta"
  attr {
    key: "T"
    value {
      type: DT_FLOAT
    }
  }
  attr {
    key: "_class"
    value {
      list {
        s: "loc:@MobilenetV2/Conv/BatchNorm/beta"
      }
    }
  }
}
node {
  name: "MobilenetV2/Conv/BatchNorm/moving_mean/Initializer/zeros"
  op: "Const"
  attr {
    key: "_class"
    value {
      list {
        s: "loc:@MobilenetV2/Conv/BatchNorm/moving_mean"
      }
    }
  }
  attr {
    key: "dtype"
    value {
      type: DT_FLOAT
    }
  }
  attr {
    key: "value"
    value {
      tensor {
        dtype: DT_FLOAT
        tensor_shape {
          dim {
            size: 32
          }
        }
        float_val: 0.0
      }
    }
  }
}
node {
  name: "MobilenetV2/Conv/BatchNorm/moving_mean"
  op: "VariableV2"
  attr {
    key: "_class"
    value {
      list {
        s: "loc:@MobilenetV2/Conv/BatchNorm/moving_mean"
      }
    }
  }
  attr {
    key: "container"
    value {
      s: ""
    }
  }
  attr {
    key: "dtype"
    value {
      type: DT_FLOAT
    }
  }
  attr {
    key: "shape"
    value {
      shape {
        dim {
          size: 32
        }
      }
    }
  }
  attr {
    key: "shared_name"
    value {
      s: ""
    }
  }
}
node {
  name: "MobilenetV2/Conv/BatchNorm/moving_mean/Assign"
  op: "Assign"
  input: "MobilenetV2/Conv/BatchNorm/moving_mean"
  input: "MobilenetV2/Conv/BatchNorm/moving_mean/Initializer/zeros"
  attr {
    key: "T"
    value {
      type: DT_FLOAT
    }
  }
  attr {
    key: "_class"
    value {
      list {
        s: "loc:@MobilenetV2/Conv/BatchNorm/moving_mean"
      }
    }
  }
  attr {
    key: "use_locking"
    value {
      b: true
    }
  }
  attr {
    key: "validate_shape"
    value {
      b: true
    }
  }
}
node {
  name: "MobilenetV2/Conv/BatchNorm/moving_mean/read"
  op: "Identity"
  input: "MobilenetV2/Conv/BatchNorm/moving_mean"
  attr {
    key: "T"
    value {
      type: DT_FLOAT
    }
  }
  attr {
    key: "_class"
    value {
      list {
        s: "loc:@MobilenetV2/Conv/BatchNorm/moving_mean"
      }
    }
  }
}
node {
  name: "MobilenetV2/Conv/BatchNorm/moving_variance/Initializer/ones"
  op: "Const"
  attr {
    key: "_class"
    value {
      list {
        s: "loc:@MobilenetV2/Conv/BatchNorm/moving_variance"
      }
    }
  }
  attr {
    key: "dtype"
    value {
      type: DT_FLOAT
    }
  }
  attr {
    key: "value"
    value {
      tensor {
        dtype: DT_FLOAT
        tensor_shape {
          dim {
            size: 32
          }
        }
        float_val: 1.0
      }
    }
  }
}
node {
  name: "MobilenetV2/Conv/BatchNorm/moving_variance"
  op: "VariableV2"
  attr {
    key: "_class"
    value {
      list {
        s: "loc:@MobilenetV2/Conv/BatchNorm/moving_variance"
      }
    }
  }
  attr {
    key: "container"
    value {
      s: ""
    }
  }
  attr {
    key: "dtype"
    value {
      type: DT_FLOAT
    }
  }
  attr {
    key: "shape"
    value {
      shape {
        dim {
          size: 32
        }
      }
    }
  }
  attr {
    key: "shared_name"
    value {
      s: ""
    }
  }
}
node {
  name: "MobilenetV2/Conv/BatchNorm/moving_variance/Assign"
  op: "Assign"
  input: "MobilenetV2/Conv/BatchNorm/moving_variance"
  input: "MobilenetV2/Conv/BatchNorm/moving_variance/Initializer/ones"
  attr {
    key: "T"
    value {
      type: DT_FLOAT
    }
  }
  attr {
    key: "_class"
    value {
      list {
        s: "loc:@MobilenetV2/Conv/BatchNorm/moving_variance"
      }
    }
  }
  attr {
    key: "use_locking"
    value {
      b: true
    }
  }
  attr {
    key: "validate_shape"
    value {
      b: true
    }
  }
}
node {
  name: "MobilenetV2/Conv/BatchNorm/moving_variance/read"
  op: "Identity"
  input: "MobilenetV2/Conv/BatchNorm/moving_variance"
  attr {
    key: "T"
    value {
      type: DT_FLOAT
    }
  }
  attr {
    key: "_class"
    value {
      list {
        s: "loc:@MobilenetV2/Conv/BatchNorm/moving_variance"
      }
    }
  }
}
node {
  name: "MobilenetV2/Conv/BatchNorm/FusedBatchNorm"
  op: "FusedBatchNorm"
  input: "MobilenetV2/Conv/Conv2D"
  input: "MobilenetV2/Conv/BatchNorm/gamma/read"
  input: "MobilenetV2/Conv/BatchNorm/beta/read"
  input: "MobilenetV2/Conv/BatchNorm/moving_mean/read"
  input: "MobilenetV2/Conv/BatchNorm/moving_variance/read"
  attr {
    key: "T"
    value {
      type: DT_FLOAT
    }
  }
  attr {
    key: "data_format"
    value {
      s: "NHWC"
    }
  }
  attr {
    key: "epsilon"
    value {
      f: 0.0010000000475
    }
  }
  attr {
    key: "is_training"
    value {
      b: false
    }
  }
}
node {
  name: "MobilenetV2/Conv/BatchNorm/Const"
  op: "Const"
  attr {
    key: "dtype"
    value {
      type: DT_FLOAT
    }
  }
  attr {
    key: "value"
    value {
      tensor {
        dtype: DT_FLOAT
        tensor_shape {
        }
        float_val: 0.996999979019
      }
    }
  }
}
node {
  name: "MobilenetV2/Conv/Relu6"
  op: "Relu6"
  input: "MobilenetV2/Conv/add_fold"
  attr {
    key: "T"
    value {
      type: DT_FLOAT
    }
  }
}
node {
  name: "MobilenetV2/expanded_conv/input"
  op: "Identity"
  input: "MobilenetV2/Conv/act_quant/FakeQuantWithMinMaxVars"
  attr {
    key: "T"
    value {
      type: DT_FLOAT
    }
  }
}
node {
  name: "MobilenetV2/expanded_conv/depthwise/depthwise_weights/Initializer/truncated_normal/shape"
  op: "Const"
  attr {
    key: "_class"
    value {
      list {
        s: "loc:@MobilenetV2/expanded_conv/depthwise/depthwise_weights"
      }
    }
  }
  attr {
    key: "dtype"
    value {
      type: DT_INT32
    }
  }
  attr {
    key: "value"
    value {
      tensor {
        dtype: DT_INT32
        tensor_shape {
          dim {
            size: 4
          }
        }
        tensor_content: "\003\000\000\000\003\000\000\000 \000\000\000\001\000\000\000"
      }
    }
  }
}
node {
  name: "MobilenetV2/expanded_conv/depthwise/depthwise_weights/Initializer/truncated_normal/mean"
  op: "Const"
  attr {
    key: "_class"
    value {
      list {
        s: "loc:@MobilenetV2/expanded_conv/depthwise/depthwise_weights"
      }
    }
  }
  attr {
    key: "dtype"
    value {
      type: DT_FLOAT
    }
  }
  attr {
    key: "value"
    value {
      tensor {
        dtype: DT_FLOAT
        tensor_shape {
        }
        float_val: 0.0
      }
    }
  }
}
node {
  name: "MobilenetV2/expanded_conv/depthwise/depthwise_weights/Initializer/truncated_normal/stddev"
  op: "Const"
  attr {
    key: "_class"
    value {
      list {
        s: "loc:@MobilenetV2/expanded_conv/depthwise/depthwise_weights"
      }
    }
  }
  attr {
    key: "dtype"
    value {
      type: DT_FLOAT
    }
  }
  attr {
    key: "value"
    value {
      tensor {
        dtype: DT_FLOAT
        tensor_shape {
        }
        float_val: 0.0900000035763
      }
    }
  }
}
node {
  name: "MobilenetV2/expanded_conv/depthwise/depthwise_weights/Initializer/truncated_normal/TruncatedNormal"
  op: "TruncatedNormal"
  input: "MobilenetV2/expanded_conv/depthwise/depthwise_weights/Initializer/truncated_normal/shape"
  attr {
    key: "T"
    value {
      type: DT_INT32
    }
  }
  attr {
    key: "_class"
    value {
      list {
        s: "loc:@MobilenetV2/expanded_conv/depthwise/depthwise_weights"
      }
    }
  }
  attr {
    key: "dtype"
    value {
      type: DT_FLOAT
    }
  }
  attr {
    key: "seed"
    value {
      i: 0
    }
  }
  attr {
    key: "seed2"
    value {
      i: 0
    }
  }
}
node {
  name: "MobilenetV2/expanded_conv/depthwise/depthwise_weights/Initializer/truncated_normal/mul"
  op: "Mul"
  input: "MobilenetV2/expanded_conv/depthwise/depthwise_weights/Initializer/truncated_normal/TruncatedNormal"
  input: "MobilenetV2/expanded_conv/depthwise/depthwise_weights/Initializer/truncated_normal/stddev"
  attr {
    key: "T"
    value {
      type: DT_FLOAT
    }
  }
  attr {
    key: "_class"
    value {
      list {
        s: "loc:@MobilenetV2/expanded_conv/depthwise/depthwise_weights"
      }
    }
  }
}
node {
  name: "MobilenetV2/expanded_conv/depthwise/depthwise_weights/Initializer/truncated_normal"
  op: "Add"
  input: "MobilenetV2/expanded_conv/depthwise/depthwise_weights/Initializer/truncated_normal/mul"
  input: "MobilenetV2/expanded_conv/depthwise/depthwise_weights/Initializer/truncated_normal/mean"
  attr {
    key: "T"
    value {
      type: DT_FLOAT
    }
  }
  attr {
    key: "_class"
    value {
      list {
        s: "loc:@MobilenetV2/expanded_conv/depthwise/depthwise_weights"
      }
    }
  }
}
node {
  name: "MobilenetV2/expanded_conv/depthwise/depthwise_weights"
  op: "VariableV2"
  attr {
    key: "_class"
    value {
      list {
        s: "loc:@MobilenetV2/expanded_conv/depthwise/depthwise_weights"
      }
    }
  }
  attr {
    key: "container"
    value {
      s: ""
    }
  }
  attr {
    key: "dtype"
    value {
      type: DT_FLOAT
    }
  }
  attr {
    key: "shape"
    value {
      shape {
        dim {
          size: 3
        }
        dim {
          size: 3
        }
        dim {
          size: 32
        }
        dim {
          size: 1
        }
      }
    }
  }
  attr {
    key: "shared_name"
    value {
      s: ""
    }
  }
}
node {
  name: "MobilenetV2/expanded_conv/depthwise/depthwise_weights/Assign"
  op: "Assign"
  input: "MobilenetV2/expanded_conv/depthwise/depthwise_weights"
  input: "MobilenetV2/expanded_conv/depthwise/depthwise_weights/Initializer/truncated_normal"
  attr {
    key: "T"
    value {
      type: DT_FLOAT
    }
  }
  attr {
    key: "_class"
    value {
      list {
        s: "loc:@MobilenetV2/expanded_conv/depthwise/depthwise_weights"
      }
    }
  }
  attr {
    key: "use_locking"
    value {
      b: true
    }
  }
  attr {
    key: "validate_shape"
    value {
      b: true
    }
  }
}
node {
  name: "MobilenetV2/expanded_conv/depthwise/depthwise_weights/read"
  op: "Identity"
  input: "MobilenetV2/expanded_conv/depthwise/depthwise_weights"
  attr {
    key: "T"
    value {
      type: DT_FLOAT
    }
  }
  attr {
    key: "_class"
    value {
      list {
        s: "loc:@MobilenetV2/expanded_conv/depthwise/depthwise_weights"
      }
    }
  }
}
node {
  name: "MobilenetV2/expanded_conv/depthwise/depthwise/Shape"
  op: "Const"
  attr {
    key: "dtype"
    value {
      type: DT_INT32
    }
  }
  attr {
    key: "value"
    value {
      tensor {
        dtype: DT_INT32
        tensor_shape {
          dim {
            size: 4
          }
        }
        tensor_content: "\003\000\000\000\003\000\000\000 \000\000\000\001\000\000\000"
      }
    }
  }
}
node {
  name: "MobilenetV2/expanded_conv/depthwise/depthwise/dilation_rate"
  op: "Const"
  attr {
    key: "dtype"
    value {
      type: DT_INT32
    }
  }
  attr {
    key: "value"
    value {
      tensor {
        dtype: DT_INT32
        tensor_shape {
          dim {
            size: 2
          }
        }
        tensor_content: "\001\000\000\000\001\000\000\000"
      }
    }
  }
}
node {
  name: "MobilenetV2/expanded_conv/depthwise/depthwise"
  op: "DepthwiseConv2dNative"
  input: "MobilenetV2/expanded_conv/input"
  input: "MobilenetV2/expanded_conv/depthwise/depthwise_weights/read"
  attr {
    key: "T"
    value {
      type: DT_FLOAT
    }
  }
  attr {
    key: "data_format"
    value {
      s: "NHWC"
    }
  }
  attr {
    key: "dilations"
    value {
      list {
        i: 1
        i: 1
        i: 1
        i: 1
      }
    }
  }
  attr {
    key: "padding"
    value {
      s: "SAME"
    }
  }
  attr {
    key: "strides"
    value {
      list {
        i: 1
        i: 1
        i: 1
        i: 1
      }
    }
  }
}
node {
  name: "MobilenetV2/expanded_conv/depthwise/BatchNorm/gamma/Initializer/ones"
  op: "Const"
  attr {
    key: "_class"
    value {
      list {
        s: "loc:@MobilenetV2/expanded_conv/depthwise/BatchNorm/gamma"
      }
    }
  }
  attr {
    key: "dtype"
    value {
      type: DT_FLOAT
    }
  }
  attr {
    key: "value"
    value {
      tensor {
        dtype: DT_FLOAT
        tensor_shape {
          dim {
            size: 32
          }
        }
        float_val: 1.0
      }
    }
  }
}
node {
  name: "MobilenetV2/expanded_conv/depthwise/BatchNorm/gamma"
  op: "VariableV2"
  attr {
    key: "_class"
    value {
      list {
        s: "loc:@MobilenetV2/expanded_conv/depthwise/BatchNorm/gamma"
      }
    }
  }
  attr {
    key: "container"
    value {
      s: ""
    }
  }
  attr {
    key: "dtype"
    value {
      type: DT_FLOAT
    }
  }
  attr {
    key: "shape"
    value {
      shape {
        dim {
          size: 32
        }
      }
    }
  }
  attr {
    key: "shared_name"
    value {
      s: ""
    }
  }
}
node {
  name: "MobilenetV2/expanded_conv/depthwise/BatchNorm/gamma/Assign"
  op: "Assign"
  input: "MobilenetV2/expanded_conv/depthwise/BatchNorm/gamma"
  input: "MobilenetV2/expanded_conv/depthwise/BatchNorm/gamma/Initializer/ones"
  attr {
    key: "T"
    value {
      type: DT_FLOAT
    }
  }
  attr {
    key: "_class"
    value {
      list {
        s: "loc:@MobilenetV2/expanded_conv/depthwise/BatchNorm/gamma"
      }
    }
  }
  attr {
    key: "use_locking"
    value {
      b: true
    }
  }
  attr {
    key: "validate_shape"
    value {
      b: true
    }
  }
}
node {
  name: "MobilenetV2/expanded_conv/depthwise/BatchNorm/gamma/read"
  op: "Identity"
  input: "MobilenetV2/expanded_conv/depthwise/BatchNorm/gamma"
  attr {
    key: "T"
    value {
      type: DT_FLOAT
    }
  }
  attr {
    key: "_class"
    value {
      list {
        s: "loc:@MobilenetV2/expanded_conv/depthwise/BatchNorm/gamma"
      }
    }
  }
}
node {
  name: "MobilenetV2/expanded_conv/depthwise/BatchNorm/beta/Initializer/zeros"
  op: "Const"
  attr {
    key: "_class"
    value {
      list {
        s: "loc:@MobilenetV2/expanded_conv/depthwise/BatchNorm/beta"
      }
    }
  }
  attr {
    key: "dtype"
    value {
      type: DT_FLOAT
    }
  }
  attr {
    key: "value"
    value {
      tensor {
        dtype: DT_FLOAT
        tensor_shape {
          dim {
            size: 32
          }
        }
        float_val: 0.0
      }
    }
  }
}
node {
  name: "MobilenetV2/expanded_conv/depthwise/BatchNorm/beta"
  op: "VariableV2"
  attr {
    key: "_class"
    value {
      list {
        s: "loc:@MobilenetV2/expanded_conv/depthwise/BatchNorm/beta"
      }
    }
  }
  attr {
    key: "container"
    value {
      s: ""
    }
  }
  attr {
    key: "dtype"
    value {
      type: DT_FLOAT
    }
  }
  attr {
    key: "shape"
    value {
      shape {
        dim {
          size: 32
        }
      }
    }
  }
  attr {
    key: "shared_name"
    value {
      s: ""
    }
  }
}
node {
  name: "MobilenetV2/expanded_conv/depthwise/BatchNorm/beta/Assign"
  op: "Assign"
  input: "MobilenetV2/expanded_conv/depthwise/BatchNorm/beta"
  input: "MobilenetV2/expanded_conv/depthwise/BatchNorm/beta/Initializer/zeros"
  attr {
    key: "T"
    value {
      type: DT_FLOAT
    }
  }
  attr {
    key: "_class"
    value {
      list {
        s: "loc:@MobilenetV2/expanded_conv/depthwise/BatchNorm/beta"
      }
    }
  }
  attr {
    key: "use_locking"
    value {
      b: true
    }
  }
  attr {
    key: "validate_shape"
    value {
      b: true
    }
  }
}
node {
  name: "MobilenetV2/expanded_conv/depthwise/BatchNorm/beta/read"
  op: "Identity"
  input: "MobilenetV2/expanded_conv/depthwise/BatchNorm/beta"
  attr {
    key: "T"
    value {
      type: DT_FLOAT
    }
  }
  attr {
    key: "_class"
    value {
      list {
        s: "loc:@MobilenetV2/expanded_conv/depthwise/BatchNorm/beta"
      }
    }
  }
}
node {
  name: "MobilenetV2/expanded_conv/depthwise/BatchNorm/moving_mean/Initializer/zeros"
  op: "Const"
  attr {
    key: "_class"
    value {
      list {
        s: "loc:@MobilenetV2/expanded_conv/depthwise/BatchNorm/moving_mean"
      }
    }
  }
  attr {
    key: "dtype"
    value {
      type: DT_FLOAT
    }
  }
  attr {
    key: "value"
    value {
      tensor {
        dtype: DT_FLOAT
        tensor_shape {
          dim {
            size: 32
          }
        }
        float_val: 0.0
      }
    }
  }
}
node {
  name: "MobilenetV2/expanded_conv/depthwise/BatchNorm/moving_mean"
  op: "VariableV2"
  attr {
    key: "_class"
    value {
      list {
        s: "loc:@MobilenetV2/expanded_conv/depthwise/BatchNorm/moving_mean"
      }
    }
  }
  attr {
    key: "container"
    value {
      s: ""
    }
  }
  attr {
    key: "dtype"
    value {
      type: DT_FLOAT
    }
  }
  attr {
    key: "shape"
    value {
      shape {
        dim {
          size: 32
        }
      }
    }
  }
  attr {
    key: "shared_name"
    value {
      s: ""
    }
  }
}
node {
  name: "MobilenetV2/expanded_conv/depthwise/BatchNorm/moving_mean/Assign"
  op: "Assign"
  input: "MobilenetV2/expanded_conv/depthwise/BatchNorm/moving_mean"
  input: "MobilenetV2/expanded_conv/depthwise/BatchNorm/moving_mean/Initializer/zeros"
  attr {
    key: "T"
    value {
      type: DT_FLOAT
    }
  }
  attr {
    key: "_class"
    value {
      list {
        s: "loc:@MobilenetV2/expanded_conv/depthwise/BatchNorm/moving_mean"
      }
    }
  }
  attr {
    key: "use_locking"
    value {
      b: true
    }
  }
  attr {
    key: "validate_shape"
    value {
      b: true
    }
  }
}
node {
  name: "MobilenetV2/expanded_conv/depthwise/BatchNorm/moving_mean/read"
  op: "Identity"
  input: "MobilenetV2/expanded_conv/depthwise/BatchNorm/moving_mean"
  attr {
    key: "T"
    value {
      type: DT_FLOAT
    }
  }
  attr {
    key: "_class"
    value {
      list {
        s: "loc:@MobilenetV2/expanded_conv/depthwise/BatchNorm/moving_mean"
      }
    }
  }
}
node {
  name: "MobilenetV2/expanded_conv/depthwise/BatchNorm/moving_variance/Initializer/ones"
  op: "Const"
  attr {
    key: "_class"
    value {
      list {
        s: "loc:@MobilenetV2/expanded_conv/depthwise/BatchNorm/moving_variance"
      }
    }
  }
  attr {
    key: "dtype"
    value {
      type: DT_FLOAT
    }
  }
  attr {
    key: "value"
    value {
      tensor {
        dtype: DT_FLOAT
        tensor_shape {
          dim {
            size: 32
          }
        }
        float_val: 1.0
      }
    }
  }
}
node {
  name: "MobilenetV2/expanded_conv/depthwise/BatchNorm/moving_variance"
  op: "VariableV2"
  attr {
    key: "_class"
    value {
      list {
        s: "loc:@MobilenetV2/expanded_conv/depthwise/BatchNorm/moving_variance"
      }
    }
  }
  attr {
    key: "container"
    value {
      s: ""
    }
  }
  attr {
    key: "dtype"
    value {
      type: DT_FLOAT
    }
  }
  attr {
    key: "shape"
    value {
      shape {
        dim {
          size: 32
        }
      }
    }
  }
  attr {
    key: "shared_name"
    value {
      s: ""
    }
  }
}
node {
  name: "MobilenetV2/expanded_conv/depthwise/BatchNorm/moving_variance/Assign"
  op: "Assign"
  input: "MobilenetV2/expanded_conv/depthwise/BatchNorm/moving_variance"
  input: "MobilenetV2/expanded_conv/depthwise/BatchNorm/moving_variance/Initializer/ones"
  attr {
    key: "T"
    value {
      type: DT_FLOAT
    }
  }
  attr {
    key: "_class"
    value {
      list {
        s: "loc:@MobilenetV2/expanded_conv/depthwise/BatchNorm/moving_variance"
      }
    }
  }
  attr {
    key: "use_locking"
    value {
      b: true
    }
  }
  attr {
    key: "validate_shape"
    value {
      b: true
    }
  }
}
node {
  name: "MobilenetV2/expanded_conv/depthwise/BatchNorm/moving_variance/read"
  op: "Identity"
  input: "MobilenetV2/expanded_conv/depthwise/BatchNorm/moving_variance"
  attr {
    key: "T"
    value {
      type: DT_FLOAT
    }
  }
  attr {
    key: "_class"
    value {
      list {
        s: "loc:@MobilenetV2/expanded_conv/depthwise/BatchNorm/moving_variance"
      }
    }
  }
}
node {
  name: "MobilenetV2/expanded_conv/depthwise/BatchNorm/FusedBatchNorm"
  op: "FusedBatchNorm"
  input: "MobilenetV2/expanded_conv/depthwise/depthwise"
  input: "MobilenetV2/expanded_conv/depthwise/BatchNorm/gamma/read"
  input: "MobilenetV2/expanded_conv/depthwise/BatchNorm/beta/read"
  input: "MobilenetV2/expanded_conv/depthwise/BatchNorm/moving_mean/read"
  input: "MobilenetV2/expanded_conv/depthwise/BatchNorm/moving_variance/read"
  attr {
    key: "T"
    value {
      type: DT_FLOAT
    }
  }
  attr {
    key: "data_format"
    value {
      s: "NHWC"
    }
  }
  attr {
    key: "epsilon"
    value {
      f: 0.0010000000475
    }
  }
  attr {
    key: "is_training"
    value {
      b: false
    }
  }
}
node {
  name: "MobilenetV2/expanded_conv/depthwise/BatchNorm/Const"
  op: "Const"
  attr {
    key: "dtype"
    value {
      type: DT_FLOAT
    }
  }
  attr {
    key: "value"
    value {
      tensor {
        dtype: DT_FLOAT
        tensor_shape {
        }
        float_val: 0.996999979019
      }
    }
  }
}
node {
  name: "MobilenetV2/expanded_conv/depthwise/Relu6"
  op: "Relu6"
  input: "MobilenetV2/expanded_conv/depthwise/add_fold"
  attr {
    key: "T"
    value {
      type: DT_FLOAT
    }
  }
}
node {
  name: "MobilenetV2/expanded_conv/depthwise_output"
  op: "Identity"
  input: "MobilenetV2/expanded_conv/depthwise/act_quant/FakeQuantWithMinMaxVars"
  attr {
    key: "T"
    value {
      type: DT_FLOAT
    }
  }
}
node {
  name: "MobilenetV2/expanded_conv/project/weights/Initializer/truncated_normal/shape"
  op: "Const"
  attr {
    key: "_class"
    value {
      list {
        s: "loc:@MobilenetV2/expanded_conv/project/weights"
      }
    }
  }
  attr {
    key: "dtype"
    value {
      type: DT_INT32
    }
  }
  attr {
    key: "value"
    value {
      tensor {
        dtype: DT_INT32
        tensor_shape {
          dim {
            size: 4
          }
        }
        tensor_content: "\001\000\000\000\001\000\000\000 \000\000\000\020\000\000\000"
      }
    }
  }
}
node {
  name: "MobilenetV2/expanded_conv/project/weights/Initializer/truncated_normal/mean"
  op: "Const"
  attr {
    key: "_class"
    value {
      list {
        s: "loc:@MobilenetV2/expanded_conv/project/weights"
      }
    }
  }
  attr {
    key: "dtype"
    value {
      type: DT_FLOAT
    }
  }
  attr {
    key: "value"
    value {
      tensor {
        dtype: DT_FLOAT
        tensor_shape {
        }
        float_val: 0.0
      }
    }
  }
}
node {
  name: "MobilenetV2/expanded_conv/project/weights/Initializer/truncated_normal/stddev"
  op: "Const"
  attr {
    key: "_class"
    value {
      list {
        s: "loc:@MobilenetV2/expanded_conv/project/weights"
      }
    }
  }
  attr {
    key: "dtype"
    value {
      type: DT_FLOAT
    }
  }
  attr {
    key: "value"
    value {
      tensor {
        dtype: DT_FLOAT
        tensor_shape {
        }
        float_val: 0.0900000035763
      }
    }
  }
}
node {
  name: "MobilenetV2/expanded_conv/project/weights/Initializer/truncated_normal/TruncatedNormal"
  op: "TruncatedNormal"
  input: "MobilenetV2/expanded_conv/project/weights/Initializer/truncated_normal/shape"
  attr {
    key: "T"
    value {
      type: DT_INT32
    }
  }
  attr {
    key: "_class"
    value {
      list {
        s: "loc:@MobilenetV2/expanded_conv/project/weights"
      }
    }
  }
  attr {
    key: "dtype"
    value {
      type: DT_FLOAT
    }
  }
  attr {
    key: "seed"
    value {
      i: 0
    }
  }
  attr {
    key: "seed2"
    value {
      i: 0
    }
  }
}
node {
  name: "MobilenetV2/expanded_conv/project/weights/Initializer/truncated_normal/mul"
  op: "Mul"
  input: "MobilenetV2/expanded_conv/project/weights/Initializer/truncated_normal/TruncatedNormal"
  input: "MobilenetV2/expanded_conv/project/weights/Initializer/truncated_normal/stddev"
  attr {
    key: "T"
    value {
      type: DT_FLOAT
    }
  }
  attr {
    key: "_class"
    value {
      list {
        s: "loc:@MobilenetV2/expanded_conv/project/weights"
      }
    }
  }
}
node {
  name: "MobilenetV2/expanded_conv/project/weights/Initializer/truncated_normal"
  op: "Add"
  input: "MobilenetV2/expanded_conv/project/weights/Initializer/truncated_normal/mul"
  input: "MobilenetV2/expanded_conv/project/weights/Initializer/truncated_normal/mean"
  attr {
    key: "T"
    value {
      type: DT_FLOAT
    }
  }
  attr {
    key: "_class"
    value {
      list {
        s: "loc:@MobilenetV2/expanded_conv/project/weights"
      }
    }
  }
}
node {
  name: "MobilenetV2/expanded_conv/project/weights"
  op: "VariableV2"
  attr {
    key: "_class"
    value {
      list {
        s: "loc:@MobilenetV2/expanded_conv/project/weights"
      }
    }
  }
  attr {
    key: "container"
    value {
      s: ""
    }
  }
  attr {
    key: "dtype"
    value {
      type: DT_FLOAT
    }
  }
  attr {
    key: "shape"
    value {
      shape {
        dim {
          size: 1
        }
        dim {
          size: 1
        }
        dim {
          size: 32
        }
        dim {
          size: 16
        }
      }
    }
  }
  attr {
    key: "shared_name"
    value {
      s: ""
    }
  }
}
node {
  name: "MobilenetV2/expanded_conv/project/weights/Assign"
  op: "Assign"
  input: "MobilenetV2/expanded_conv/project/weights"
  input: "MobilenetV2/expanded_conv/project/weights/Initializer/truncated_normal"
  attr {
    key: "T"
    value {
      type: DT_FLOAT
    }
  }
  attr {
    key: "_class"
    value {
      list {
        s: "loc:@MobilenetV2/expanded_conv/project/weights"
      }
    }
  }
  attr {
    key: "use_locking"
    value {
      b: true
    }
  }
  attr {
    key: "validate_shape"
    value {
      b: true
    }
  }
}
node {
  name: "MobilenetV2/expanded_conv/project/weights/read"
  op: "Identity"
  input: "MobilenetV2/expanded_conv/project/weights"
  attr {
    key: "T"
    value {
      type: DT_FLOAT
    }
  }
  attr {
    key: "_class"
    value {
      list {
        s: "loc:@MobilenetV2/expanded_conv/project/weights"
      }
    }
  }
}
node {
  name: "MobilenetV2/expanded_conv/project/dilation_rate"
  op: "Const"
  attr {
    key: "dtype"
    value {
      type: DT_INT32
    }
  }
  attr {
    key: "value"
    value {
      tensor {
        dtype: DT_INT32
        tensor_shape {
          dim {
            size: 2
          }
        }
        tensor_content: "\001\000\000\000\001\000\000\000"
      }
    }
  }
}
node {
  name: "MobilenetV2/expanded_conv/project/Conv2D"
  op: "Conv2D"
  input: "MobilenetV2/expanded_conv/depthwise_output"
  input: "MobilenetV2/expanded_conv/project/weights/read"
  attr {
    key: "T"
    value {
      type: DT_FLOAT
    }
  }
  attr {
    key: "data_format"
    value {
      s: "NHWC"
    }
  }
  attr {
    key: "dilations"
    value {
      list {
        i: 1
        i: 1
        i: 1
        i: 1
      }
    }
  }
  attr {
    key: "padding"
    value {
      s: "SAME"
    }
  }
  attr {
    key: "strides"
    value {
      list {
        i: 1
        i: 1
        i: 1
        i: 1
      }
    }
  }
  attr {
    key: "use_cudnn_on_gpu"
    value {
      b: true
    }
  }
}
node {
  name: "MobilenetV2/expanded_conv/project/BatchNorm/gamma/Initializer/ones"
  op: "Const"
  attr {
    key: "_class"
    value {
      list {
        s: "loc:@MobilenetV2/expanded_conv/project/BatchNorm/gamma"
      }
    }
  }
  attr {
    key: "dtype"
    value {
      type: DT_FLOAT
    }
  }
  attr {
    key: "value"
    value {
      tensor {
        dtype: DT_FLOAT
        tensor_shape {
          dim {
            size: 16
          }
        }
        float_val: 1.0
      }
    }
  }
}
node {
  name: "MobilenetV2/expanded_conv/project/BatchNorm/gamma"
  op: "VariableV2"
  attr {
    key: "_class"
    value {
      list {
        s: "loc:@MobilenetV2/expanded_conv/project/BatchNorm/gamma"
      }
    }
  }
  attr {
    key: "container"
    value {
      s: ""
    }
  }
  attr {
    key: "dtype"
    value {
      type: DT_FLOAT
    }
  }
  attr {
    key: "shape"
    value {
      shape {
        dim {
          size: 16
        }
      }
    }
  }
  attr {
    key: "shared_name"
    value {
      s: ""
    }
  }
}
node {
  name: "MobilenetV2/expanded_conv/project/BatchNorm/gamma/Assign"
  op: "Assign"
  input: "MobilenetV2/expanded_conv/project/BatchNorm/gamma"
  input: "MobilenetV2/expanded_conv/project/BatchNorm/gamma/Initializer/ones"
  attr {
    key: "T"
    value {
      type: DT_FLOAT
    }
  }
  attr {
    key: "_class"
    value {
      list {
        s: "loc:@MobilenetV2/expanded_conv/project/BatchNorm/gamma"
      }
    }
  }
  attr {
    key: "use_locking"
    value {
      b: true
    }
  }
  attr {
    key: "validate_shape"
    value {
      b: true
    }
  }
}
node {
  name: "MobilenetV2/expanded_conv/project/BatchNorm/gamma/read"
  op: "Identity"
  input: "MobilenetV2/expanded_conv/project/BatchNorm/gamma"
  attr {
    key: "T"
    value {
      type: DT_FLOAT
    }
  }
  attr {
    key: "_class"
    value {
      list {
        s: "loc:@MobilenetV2/expanded_conv/project/BatchNorm/gamma"
      }
    }
  }
}
node {
  name: "MobilenetV2/expanded_conv/project/BatchNorm/beta/Initializer/zeros"
  op: "Const"
  attr {
    key: "_class"
    value {
      list {
        s: "loc:@MobilenetV2/expanded_conv/project/BatchNorm/beta"
      }
    }
  }
  attr {
    key: "dtype"
    value {
      type: DT_FLOAT
    }
  }
  attr {
    key: "value"
    value {
      tensor {
        dtype: DT_FLOAT
        tensor_shape {
          dim {
            size: 16
          }
        }
        float_val: 0.0
      }
    }
  }
}
node {
  name: "MobilenetV2/expanded_conv/project/BatchNorm/beta"
  op: "VariableV2"
  attr {
    key: "_class"
    value {
      list {
        s: "loc:@MobilenetV2/expanded_conv/project/BatchNorm/beta"
      }
    }
  }
  attr {
    key: "container"
    value {
      s: ""
    }
  }
  attr {
    key: "dtype"
    value {
      type: DT_FLOAT
    }
  }
  attr {
    key: "shape"
    value {
      shape {
        dim {
          size: 16
        }
      }
    }
  }
  attr {
    key: "shared_name"
    value {
      s: ""
    }
  }
}
node {
  name: "MobilenetV2/expanded_conv/project/BatchNorm/beta/Assign"
  op: "Assign"
  input: "MobilenetV2/expanded_conv/project/BatchNorm/beta"
  input: "MobilenetV2/expanded_conv/project/BatchNorm/beta/Initializer/zeros"
  attr {
    key: "T"
    value {
      type: DT_FLOAT
    }
  }
  attr {
    key: "_class"
    value {
      list {
        s: "loc:@MobilenetV2/expanded_conv/project/BatchNorm/beta"
      }
    }
  }
  attr {
    key: "use_locking"
    value {
      b: true
    }
  }
  attr {
    key: "validate_shape"
    value {
      b: true
    }
  }
}
node {
  name: "MobilenetV2/expanded_conv/project/BatchNorm/beta/read"
  op: "Identity"
  input: "MobilenetV2/expanded_conv/project/BatchNorm/beta"
  attr {
    key: "T"
    value {
      type: DT_FLOAT
    }
  }
  attr {
    key: "_class"
    value {
      list {
        s: "loc:@MobilenetV2/expanded_conv/project/BatchNorm/beta"
      }
    }
  }
}
node {
  name: "MobilenetV2/expanded_conv/project/BatchNorm/moving_mean/Initializer/zeros"
  op: "Const"
  attr {
    key: "_class"
    value {
      list {
        s: "loc:@MobilenetV2/expanded_conv/project/BatchNorm/moving_mean"
      }
    }
  }
  attr {
    key: "dtype"
    value {
      type: DT_FLOAT
    }
  }
  attr {
    key: "value"
    value {
      tensor {
        dtype: DT_FLOAT
        tensor_shape {
          dim {
            size: 16
          }
        }
        float_val: 0.0
      }
    }
  }
}
node {
  name: "MobilenetV2/expanded_conv/project/BatchNorm/moving_mean"
  op: "VariableV2"
  attr {
    key: "_class"
    value {
      list {
        s: "loc:@MobilenetV2/expanded_conv/project/BatchNorm/moving_mean"
      }
    }
  }
  attr {
    key: "container"
    value {
      s: ""
    }
  }
  attr {
    key: "dtype"
    value {
      type: DT_FLOAT
    }
  }
  attr {
    key: "shape"
    value {
      shape {
        dim {
          size: 16
        }
      }
    }
  }
  attr {
    key: "shared_name"
    value {
      s: ""
    }
  }
}
node {
  name: "MobilenetV2/expanded_conv/project/BatchNorm/moving_mean/Assign"
  op: "Assign"
  input: "MobilenetV2/expanded_conv/project/BatchNorm/moving_mean"
  input: "MobilenetV2/expanded_conv/project/BatchNorm/moving_mean/Initializer/zeros"
  attr {
    key: "T"
    value {
      type: DT_FLOAT
    }
  }
  attr {
    key: "_class"
    value {
      list {
        s: "loc:@MobilenetV2/expanded_conv/project/BatchNorm/moving_mean"
      }
    }
  }
  attr {
    key: "use_locking"
    value {
      b: true
    }
  }
  attr {
    key: "validate_shape"
    value {
      b: true
    }
  }
}
node {
  name: "MobilenetV2/expanded_conv/project/BatchNorm/moving_mean/read"
  op: "Identity"
  input: "MobilenetV2/expanded_conv/project/BatchNorm/moving_mean"
  attr {
    key: "T"
    value {
      type: DT_FLOAT
    }
  }
  attr {
    key: "_class"
    value {
      list {
        s: "loc:@MobilenetV2/expanded_conv/project/BatchNorm/moving_mean"
      }
    }
  }
}
node {
  name: "MobilenetV2/expanded_conv/project/BatchNorm/moving_variance/Initializer/ones"
  op: "Const"
  attr {
    key: "_class"
    value {
      list {
        s: "loc:@MobilenetV2/expanded_conv/project/BatchNorm/moving_variance"
      }
    }
  }
  attr {
    key: "dtype"
    value {
      type: DT_FLOAT
    }
  }
  attr {
    key: "value"
    value {
      tensor {
        dtype: DT_FLOAT
        tensor_shape {
          dim {
            size: 16
          }
        }
        float_val: 1.0
      }
    }
  }
}
node {
  name: "MobilenetV2/expanded_conv/project/BatchNorm/moving_variance"
  op: "VariableV2"
  attr {
    key: "_class"
    value {
      list {
        s: "loc:@MobilenetV2/expanded_conv/project/BatchNorm/moving_variance"
      }
    }
  }
  attr {
    key: "container"
    value {
      s: ""
    }
  }
  attr {
    key: "dtype"
    value {
      type: DT_FLOAT
    }
  }
  attr {
    key: "shape"
    value {
      shape {
        dim {
          size: 16
        }
      }
    }
  }
  attr {
    key: "shared_name"
    value {
      s: ""
    }
  }
}
node {
  name: "MobilenetV2/expanded_conv/project/BatchNorm/moving_variance/Assign"
  op: "Assign"
  input: "MobilenetV2/expanded_conv/project/BatchNorm/moving_variance"
  input: "MobilenetV2/expanded_conv/project/BatchNorm/moving_variance/Initializer/ones"
  attr {
    key: "T"
    value {
      type: DT_FLOAT
    }
  }
  attr {
    key: "_class"
    value {
      list {
        s: "loc:@MobilenetV2/expanded_conv/project/BatchNorm/moving_variance"
      }
    }
  }
  attr {
    key: "use_locking"
    value {
      b: true
    }
  }
  attr {
    key: "validate_shape"
    value {
      b: true
    }
  }
}
node {
  name: "MobilenetV2/expanded_conv/project/BatchNorm/moving_variance/read"
  op: "Identity"
  input: "MobilenetV2/expanded_conv/project/BatchNorm/moving_variance"
  attr {
    key: "T"
    value {
      type: DT_FLOAT
    }
  }
  attr {
    key: "_class"
    value {
      list {
        s: "loc:@MobilenetV2/expanded_conv/project/BatchNorm/moving_variance"
      }
    }
  }
}
node {
  name: "MobilenetV2/expanded_conv/project/BatchNorm/FusedBatchNorm"
  op: "FusedBatchNorm"
  input: "MobilenetV2/expanded_conv/project/Conv2D"
  input: "MobilenetV2/expanded_conv/project/BatchNorm/gamma/read"
  input: "MobilenetV2/expanded_conv/project/BatchNorm/beta/read"
  input: "MobilenetV2/expanded_conv/project/BatchNorm/moving_mean/read"
  input: "MobilenetV2/expanded_conv/project/BatchNorm/moving_variance/read"
  attr {
    key: "T"
    value {
      type: DT_FLOAT
    }
  }
  attr {
    key: "data_format"
    value {
      s: "NHWC"
    }
  }
  attr {
    key: "epsilon"
    value {
      f: 0.0010000000475
    }
  }
  attr {
    key: "is_training"
    value {
      b: false
    }
  }
}
node {
  name: "MobilenetV2/expanded_conv/project/BatchNorm/Const"
  op: "Const"
  attr {
    key: "dtype"
    value {
      type: DT_FLOAT
    }
  }
  attr {
    key: "value"
    value {
      tensor {
        dtype: DT_FLOAT
        tensor_shape {
        }
        float_val: 0.996999979019
      }
    }
  }
}
node {
  name: "MobilenetV2/expanded_conv/project/Identity"
  op: "Identity"
  input: "MobilenetV2/expanded_conv/project/add_fold"
  attr {
    key: "T"
    value {
      type: DT_FLOAT
    }
  }
}
node {
  name: "MobilenetV2/expanded_conv/output"
  op: "Identity"
  input: "MobilenetV2/expanded_conv/project/act_quant/FakeQuantWithMinMaxVars"
  attr {
    key: "T"
    value {
      type: DT_FLOAT
    }
  }
}
node {
  name: "MobilenetV2/expanded_conv_1/input"
  op: "Identity"
  input: "MobilenetV2/expanded_conv/output"
  attr {
    key: "T"
    value {
      type: DT_FLOAT
    }
  }
}
node {
  name: "MobilenetV2/expanded_conv_1/expand/weights/Initializer/truncated_normal/shape"
  op: "Const"
  attr {
    key: "_class"
    value {
      list {
        s: "loc:@MobilenetV2/expanded_conv_1/expand/weights"
      }
    }
  }
  attr {
    key: "dtype"
    value {
      type: DT_INT32
    }
  }
  attr {
    key: "value"
    value {
      tensor {
        dtype: DT_INT32
        tensor_shape {
          dim {
            size: 4
          }
        }
        tensor_content: "\001\000\000\000\001\000\000\000\020\000\000\000`\000\000\000"
      }
    }
  }
}
node {
  name: "MobilenetV2/expanded_conv_1/expand/weights/Initializer/truncated_normal/mean"
  op: "Const"
  attr {
    key: "_class"
    value {
      list {
        s: "loc:@MobilenetV2/expanded_conv_1/expand/weights"
      }
    }
  }
  attr {
    key: "dtype"
    value {
      type: DT_FLOAT
    }
  }
  attr {
    key: "value"
    value {
      tensor {
        dtype: DT_FLOAT
        tensor_shape {
        }
        float_val: 0.0
      }
    }
  }
}
node {
  name: "MobilenetV2/expanded_conv_1/expand/weights/Initializer/truncated_normal/stddev"
  op: "Const"
  attr {
    key: "_class"
    value {
      list {
        s: "loc:@MobilenetV2/expanded_conv_1/expand/weights"
      }
    }
  }
  attr {
    key: "dtype"
    value {
      type: DT_FLOAT
    }
  }
  attr {
    key: "value"
    value {
      tensor {
        dtype: DT_FLOAT
        tensor_shape {
        }
        float_val: 0.0900000035763
      }
    }
  }
}
node {
  name: "MobilenetV2/expanded_conv_1/expand/weights/Initializer/truncated_normal/TruncatedNormal"
  op: "TruncatedNormal"
  input: "MobilenetV2/expanded_conv_1/expand/weights/Initializer/truncated_normal/shape"
  attr {
    key: "T"
    value {
      type: DT_INT32
    }
  }
  attr {
    key: "_class"
    value {
      list {
        s: "loc:@MobilenetV2/expanded_conv_1/expand/weights"
      }
    }
  }
  attr {
    key: "dtype"
    value {
      type: DT_FLOAT
    }
  }
  attr {
    key: "seed"
    value {
      i: 0
    }
  }
  attr {
    key: "seed2"
    value {
      i: 0
    }
  }
}
node {
  name: "MobilenetV2/expanded_conv_1/expand/weights/Initializer/truncated_normal/mul"
  op: "Mul"
  input: "MobilenetV2/expanded_conv_1/expand/weights/Initializer/truncated_normal/TruncatedNormal"
  input: "MobilenetV2/expanded_conv_1/expand/weights/Initializer/truncated_normal/stddev"
  attr {
    key: "T"
    value {
      type: DT_FLOAT
    }
  }
  attr {
    key: "_class"
    value {
      list {
        s: "loc:@MobilenetV2/expanded_conv_1/expand/weights"
      }
    }
  }
}
node {
  name: "MobilenetV2/expanded_conv_1/expand/weights/Initializer/truncated_normal"
  op: "Add"
  input: "MobilenetV2/expanded_conv_1/expand/weights/Initializer/truncated_normal/mul"
  input: "MobilenetV2/expanded_conv_1/expand/weights/Initializer/truncated_normal/mean"
  attr {
    key: "T"
    value {
      type: DT_FLOAT
    }
  }
  attr {
    key: "_class"
    value {
      list {
        s: "loc:@MobilenetV2/expanded_conv_1/expand/weights"
      }
    }
  }
}
node {
  name: "MobilenetV2/expanded_conv_1/expand/weights"
  op: "VariableV2"
  attr {
    key: "_class"
    value {
      list {
        s: "loc:@MobilenetV2/expanded_conv_1/expand/weights"
      }
    }
  }
  attr {
    key: "container"
    value {
      s: ""
    }
  }
  attr {
    key: "dtype"
    value {
      type: DT_FLOAT
    }
  }
  attr {
    key: "shape"
    value {
      shape {
        dim {
          size: 1
        }
        dim {
          size: 1
        }
        dim {
          size: 16
        }
        dim {
          size: 96
        }
      }
    }
  }
  attr {
    key: "shared_name"
    value {
      s: ""
    }
  }
}
node {
  name: "MobilenetV2/expanded_conv_1/expand/weights/Assign"
  op: "Assign"
  input: "MobilenetV2/expanded_conv_1/expand/weights"
  input: "MobilenetV2/expanded_conv_1/expand/weights/Initializer/truncated_normal"
  attr {
    key: "T"
    value {
      type: DT_FLOAT
    }
  }
  attr {
    key: "_class"
    value {
      list {
        s: "loc:@MobilenetV2/expanded_conv_1/expand/weights"
      }
    }
  }
  attr {
    key: "use_locking"
    value {
      b: true
    }
  }
  attr {
    key: "validate_shape"
    value {
      b: true
    }
  }
}
node {
  name: "MobilenetV2/expanded_conv_1/expand/weights/read"
  op: "Identity"
  input: "MobilenetV2/expanded_conv_1/expand/weights"
  attr {
    key: "T"
    value {
      type: DT_FLOAT
    }
  }
  attr {
    key: "_class"
    value {
      list {
        s: "loc:@MobilenetV2/expanded_conv_1/expand/weights"
      }
    }
  }
}
node {
  name: "MobilenetV2/expanded_conv_1/expand/dilation_rate"
  op: "Const"
  attr {
    key: "dtype"
    value {
      type: DT_INT32
    }
  }
  attr {
    key: "value"
    value {
      tensor {
        dtype: DT_INT32
        tensor_shape {
          dim {
            size: 2
          }
        }
        tensor_content: "\001\000\000\000\001\000\000\000"
      }
    }
  }
}
node {
  name: "MobilenetV2/expanded_conv_1/expand/Conv2D"
  op: "Conv2D"
  input: "MobilenetV2/expanded_conv_1/input"
  input: "MobilenetV2/expanded_conv_1/expand/weights/read"
  attr {
    key: "T"
    value {
      type: DT_FLOAT
    }
  }
  attr {
    key: "data_format"
    value {
      s: "NHWC"
    }
  }
  attr {
    key: "dilations"
    value {
      list {
        i: 1
        i: 1
        i: 1
        i: 1
      }
    }
  }
  attr {
    key: "padding"
    value {
      s: "SAME"
    }
  }
  attr {
    key: "strides"
    value {
      list {
        i: 1
        i: 1
        i: 1
        i: 1
      }
    }
  }
  attr {
    key: "use_cudnn_on_gpu"
    value {
      b: true
    }
  }
}
node {
  name: "MobilenetV2/expanded_conv_1/expand/BatchNorm/gamma/Initializer/ones"
  op: "Const"
  attr {
    key: "_class"
    value {
      list {
        s: "loc:@MobilenetV2/expanded_conv_1/expand/BatchNorm/gamma"
      }
    }
  }
  attr {
    key: "dtype"
    value {
      type: DT_FLOAT
    }
  }
  attr {
    key: "value"
    value {
      tensor {
        dtype: DT_FLOAT
        tensor_shape {
          dim {
            size: 96
          }
        }
        float_val: 1.0
      }
    }
  }
}
node {
  name: "MobilenetV2/expanded_conv_1/expand/BatchNorm/gamma"
  op: "VariableV2"
  attr {
    key: "_class"
    value {
      list {
        s: "loc:@MobilenetV2/expanded_conv_1/expand/BatchNorm/gamma"
      }
    }
  }
  attr {
    key: "container"
    value {
      s: ""
    }
  }
  attr {
    key: "dtype"
    value {
      type: DT_FLOAT
    }
  }
  attr {
    key: "shape"
    value {
      shape {
        dim {
          size: 96
        }
      }
    }
  }
  attr {
    key: "shared_name"
    value {
      s: ""
    }
  }
}
node {
  name: "MobilenetV2/expanded_conv_1/expand/BatchNorm/gamma/Assign"
  op: "Assign"
  input: "MobilenetV2/expanded_conv_1/expand/BatchNorm/gamma"
  input: "MobilenetV2/expanded_conv_1/expand/BatchNorm/gamma/Initializer/ones"
  attr {
    key: "T"
    value {
      type: DT_FLOAT
    }
  }
  attr {
    key: "_class"
    value {
      list {
        s: "loc:@MobilenetV2/expanded_conv_1/expand/BatchNorm/gamma"
      }
    }
  }
  attr {
    key: "use_locking"
    value {
      b: true
    }
  }
  attr {
    key: "validate_shape"
    value {
      b: true
    }
  }
}
node {
  name: "MobilenetV2/expanded_conv_1/expand/BatchNorm/gamma/read"
  op: "Identity"
  input: "MobilenetV2/expanded_conv_1/expand/BatchNorm/gamma"
  attr {
    key: "T"
    value {
      type: DT_FLOAT
    }
  }
  attr {
    key: "_class"
    value {
      list {
        s: "loc:@MobilenetV2/expanded_conv_1/expand/BatchNorm/gamma"
      }
    }
  }
}
node {
  name: "MobilenetV2/expanded_conv_1/expand/BatchNorm/beta/Initializer/zeros"
  op: "Const"
  attr {
    key: "_class"
    value {
      list {
        s: "loc:@MobilenetV2/expanded_conv_1/expand/BatchNorm/beta"
      }
    }
  }
  attr {
    key: "dtype"
    value {
      type: DT_FLOAT
    }
  }
  attr {
    key: "value"
    value {
      tensor {
        dtype: DT_FLOAT
        tensor_shape {
          dim {
            size: 96
          }
        }
        float_val: 0.0
      }
    }
  }
}
node {
  name: "MobilenetV2/expanded_conv_1/expand/BatchNorm/beta"
  op: "VariableV2"
  attr {
    key: "_class"
    value {
      list {
        s: "loc:@MobilenetV2/expanded_conv_1/expand/BatchNorm/beta"
      }
    }
  }
  attr {
    key: "container"
    value {
      s: ""
    }
  }
  attr {
    key: "dtype"
    value {
      type: DT_FLOAT
    }
  }
  attr {
    key: "shape"
    value {
      shape {
        dim {
          size: 96
        }
      }
    }
  }
  attr {
    key: "shared_name"
    value {
      s: ""
    }
  }
}
node {
  name: "MobilenetV2/expanded_conv_1/expand/BatchNorm/beta/Assign"
  op: "Assign"
  input: "MobilenetV2/expanded_conv_1/expand/BatchNorm/beta"
  input: "MobilenetV2/expanded_conv_1/expand/BatchNorm/beta/Initializer/zeros"
  attr {
    key: "T"
    value {
      type: DT_FLOAT
    }
  }
  attr {
    key: "_class"
    value {
      list {
        s: "loc:@MobilenetV2/expanded_conv_1/expand/BatchNorm/beta"
      }
    }
  }
  attr {
    key: "use_locking"
    value {
      b: true
    }
  }
  attr {
    key: "validate_shape"
    value {
      b: true
    }
  }
}
node {
  name: "MobilenetV2/expanded_conv_1/expand/BatchNorm/beta/read"
  op: "Identity"
  input: "MobilenetV2/expanded_conv_1/expand/BatchNorm/beta"
  attr {
    key: "T"
    value {
      type: DT_FLOAT
    }
  }
  attr {
    key: "_class"
    value {
      list {
        s: "loc:@MobilenetV2/expanded_conv_1/expand/BatchNorm/beta"
      }
    }
  }
}
node {
  name: "MobilenetV2/expanded_conv_1/expand/BatchNorm/moving_mean/Initializer/zeros"
  op: "Const"
  attr {
    key: "_class"
    value {
      list {
        s: "loc:@MobilenetV2/expanded_conv_1/expand/BatchNorm/moving_mean"
      }
    }
  }
  attr {
    key: "dtype"
    value {
      type: DT_FLOAT
    }
  }
  attr {
    key: "value"
    value {
      tensor {
        dtype: DT_FLOAT
        tensor_shape {
          dim {
            size: 96
          }
        }
        float_val: 0.0
      }
    }
  }
}
node {
  name: "MobilenetV2/expanded_conv_1/expand/BatchNorm/moving_mean"
  op: "VariableV2"
  attr {
    key: "_class"
    value {
      list {
        s: "loc:@MobilenetV2/expanded_conv_1/expand/BatchNorm/moving_mean"
      }
    }
  }
  attr {
    key: "container"
    value {
      s: ""
    }
  }
  attr {
    key: "dtype"
    value {
      type: DT_FLOAT
    }
  }
  attr {
    key: "shape"
    value {
      shape {
        dim {
          size: 96
        }
      }
    }
  }
  attr {
    key: "shared_name"
    value {
      s: ""
    }
  }
}
node {
  name: "MobilenetV2/expanded_conv_1/expand/BatchNorm/moving_mean/Assign"
  op: "Assign"
  input: "MobilenetV2/expanded_conv_1/expand/BatchNorm/moving_mean"
  input: "MobilenetV2/expanded_conv_1/expand/BatchNorm/moving_mean/Initializer/zeros"
  attr {
    key: "T"
    value {
      type: DT_FLOAT
    }
  }
  attr {
    key: "_class"
    value {
      list {
        s: "loc:@MobilenetV2/expanded_conv_1/expand/BatchNorm/moving_mean"
      }
    }
  }
  attr {
    key: "use_locking"
    value {
      b: true
    }
  }
  attr {
    key: "validate_shape"
    value {
      b: true
    }
  }
}
node {
  name: "MobilenetV2/expanded_conv_1/expand/BatchNorm/moving_mean/read"
  op: "Identity"
  input: "MobilenetV2/expanded_conv_1/expand/BatchNorm/moving_mean"
  attr {
    key: "T"
    value {
      type: DT_FLOAT
    }
  }
  attr {
    key: "_class"
    value {
      list {
        s: "loc:@MobilenetV2/expanded_conv_1/expand/BatchNorm/moving_mean"
      }
    }
  }
}
node {
  name: "MobilenetV2/expanded_conv_1/expand/BatchNorm/moving_variance/Initializer/ones"
  op: "Const"
  attr {
    key: "_class"
    value {
      list {
        s: "loc:@MobilenetV2/expanded_conv_1/expand/BatchNorm/moving_variance"
      }
    }
  }
  attr {
    key: "dtype"
    value {
      type: DT_FLOAT
    }
  }
  attr {
    key: "value"
    value {
      tensor {
        dtype: DT_FLOAT
        tensor_shape {
          dim {
            size: 96
          }
        }
        float_val: 1.0
      }
    }
  }
}
node {
  name: "MobilenetV2/expanded_conv_1/expand/BatchNorm/moving_variance"
  op: "VariableV2"
  attr {
    key: "_class"
    value {
      list {
        s: "loc:@MobilenetV2/expanded_conv_1/expand/BatchNorm/moving_variance"
      }
    }
  }
  attr {
    key: "container"
    value {
      s: ""
    }
  }
  attr {
    key: "dtype"
    value {
      type: DT_FLOAT
    }
  }
  attr {
    key: "shape"
    value {
      shape {
        dim {
          size: 96
        }
      }
    }
  }
  attr {
    key: "shared_name"
    value {
      s: ""
    }
  }
}
node {
  name: "MobilenetV2/expanded_conv_1/expand/BatchNorm/moving_variance/Assign"
  op: "Assign"
  input: "MobilenetV2/expanded_conv_1/expand/BatchNorm/moving_variance"
  input: "MobilenetV2/expanded_conv_1/expand/BatchNorm/moving_variance/Initializer/ones"
  attr {
    key: "T"
    value {
      type: DT_FLOAT
    }
  }
  attr {
    key: "_class"
    value {
      list {
        s: "loc:@MobilenetV2/expanded_conv_1/expand/BatchNorm/moving_variance"
      }
    }
  }
  attr {
    key: "use_locking"
    value {
      b: true
    }
  }
  attr {
    key: "validate_shape"
    value {
      b: true
    }
  }
}
node {
  name: "MobilenetV2/expanded_conv_1/expand/BatchNorm/moving_variance/read"
  op: "Identity"
  input: "MobilenetV2/expanded_conv_1/expand/BatchNorm/moving_variance"
  attr {
    key: "T"
    value {
      type: DT_FLOAT
    }
  }
  attr {
    key: "_class"
    value {
      list {
        s: "loc:@MobilenetV2/expanded_conv_1/expand/BatchNorm/moving_variance"
      }
    }
  }
}
node {
  name: "MobilenetV2/expanded_conv_1/expand/BatchNorm/FusedBatchNorm"
  op: "FusedBatchNorm"
  input: "MobilenetV2/expanded_conv_1/expand/Conv2D"
  input: "MobilenetV2/expanded_conv_1/expand/BatchNorm/gamma/read"
  input: "MobilenetV2/expanded_conv_1/expand/BatchNorm/beta/read"
  input: "MobilenetV2/expanded_conv_1/expand/BatchNorm/moving_mean/read"
  input: "MobilenetV2/expanded_conv_1/expand/BatchNorm/moving_variance/read"
  attr {
    key: "T"
    value {
      type: DT_FLOAT
    }
  }
  attr {
    key: "data_format"
    value {
      s: "NHWC"
    }
  }
  attr {
    key: "epsilon"
    value {
      f: 0.0010000000475
    }
  }
  attr {
    key: "is_training"
    value {
      b: false
    }
  }
}
node {
  name: "MobilenetV2/expanded_conv_1/expand/BatchNorm/Const"
  op: "Const"
  attr {
    key: "dtype"
    value {
      type: DT_FLOAT
    }
  }
  attr {
    key: "value"
    value {
      tensor {
        dtype: DT_FLOAT
        tensor_shape {
        }
        float_val: 0.996999979019
      }
    }
  }
}
node {
  name: "MobilenetV2/expanded_conv_1/expand/Relu6"
  op: "Relu6"
  input: "MobilenetV2/expanded_conv_1/expand/add_fold"
  attr {
    key: "T"
    value {
      type: DT_FLOAT
    }
  }
}
node {
  name: "MobilenetV2/expanded_conv_1/expansion_output"
  op: "Identity"
  input: "MobilenetV2/expanded_conv_1/expand/act_quant/FakeQuantWithMinMaxVars"
  attr {
    key: "T"
    value {
      type: DT_FLOAT
    }
  }
}
node {
  name: "MobilenetV2/expanded_conv_1/depthwise/depthwise_weights/Initializer/truncated_normal/shape"
  op: "Const"
  attr {
    key: "_class"
    value {
      list {
        s: "loc:@MobilenetV2/expanded_conv_1/depthwise/depthwise_weights"
      }
    }
  }
  attr {
    key: "dtype"
    value {
      type: DT_INT32
    }
  }
  attr {
    key: "value"
    value {
      tensor {
        dtype: DT_INT32
        tensor_shape {
          dim {
            size: 4
          }
        }
        tensor_content: "\003\000\000\000\003\000\000\000`\000\000\000\001\000\000\000"
      }
    }
  }
}
node {
  name: "MobilenetV2/expanded_conv_1/depthwise/depthwise_weights/Initializer/truncated_normal/mean"
  op: "Const"
  attr {
    key: "_class"
    value {
      list {
        s: "loc:@MobilenetV2/expanded_conv_1/depthwise/depthwise_weights"
      }
    }
  }
  attr {
    key: "dtype"
    value {
      type: DT_FLOAT
    }
  }
  attr {
    key: "value"
    value {
      tensor {
        dtype: DT_FLOAT
        tensor_shape {
        }
        float_val: 0.0
      }
    }
  }
}
node {
  name: "MobilenetV2/expanded_conv_1/depthwise/depthwise_weights/Initializer/truncated_normal/stddev"
  op: "Const"
  attr {
    key: "_class"
    value {
      list {
        s: "loc:@MobilenetV2/expanded_conv_1/depthwise/depthwise_weights"
      }
    }
  }
  attr {
    key: "dtype"
    value {
      type: DT_FLOAT
    }
  }
  attr {
    key: "value"
    value {
      tensor {
        dtype: DT_FLOAT
        tensor_shape {
        }
        float_val: 0.0900000035763
      }
    }
  }
}
node {
  name: "MobilenetV2/expanded_conv_1/depthwise/depthwise_weights/Initializer/truncated_normal/TruncatedNormal"
  op: "TruncatedNormal"
  input: "MobilenetV2/expanded_conv_1/depthwise/depthwise_weights/Initializer/truncated_normal/shape"
  attr {
    key: "T"
    value {
      type: DT_INT32
    }
  }
  attr {
    key: "_class"
    value {
      list {
        s: "loc:@MobilenetV2/expanded_conv_1/depthwise/depthwise_weights"
      }
    }
  }
  attr {
    key: "dtype"
    value {
      type: DT_FLOAT
    }
  }
  attr {
    key: "seed"
    value {
      i: 0
    }
  }
  attr {
    key: "seed2"
    value {
      i: 0
    }
  }
}
node {
  name: "MobilenetV2/expanded_conv_1/depthwise/depthwise_weights/Initializer/truncated_normal/mul"
  op: "Mul"
  input: "MobilenetV2/expanded_conv_1/depthwise/depthwise_weights/Initializer/truncated_normal/TruncatedNormal"
  input: "MobilenetV2/expanded_conv_1/depthwise/depthwise_weights/Initializer/truncated_normal/stddev"
  attr {
    key: "T"
    value {
      type: DT_FLOAT
    }
  }
  attr {
    key: "_class"
    value {
      list {
        s: "loc:@MobilenetV2/expanded_conv_1/depthwise/depthwise_weights"
      }
    }
  }
}
node {
  name: "MobilenetV2/expanded_conv_1/depthwise/depthwise_weights/Initializer/truncated_normal"
  op: "Add"
  input: "MobilenetV2/expanded_conv_1/depthwise/depthwise_weights/Initializer/truncated_normal/mul"
  input: "MobilenetV2/expanded_conv_1/depthwise/depthwise_weights/Initializer/truncated_normal/mean"
  attr {
    key: "T"
    value {
      type: DT_FLOAT
    }
  }
  attr {
    key: "_class"
    value {
      list {
        s: "loc:@MobilenetV2/expanded_conv_1/depthwise/depthwise_weights"
      }
    }
  }
}
node {
  name: "MobilenetV2/expanded_conv_1/depthwise/depthwise_weights"
  op: "VariableV2"
  attr {
    key: "_class"
    value {
      list {
        s: "loc:@MobilenetV2/expanded_conv_1/depthwise/depthwise_weights"
      }
    }
  }
  attr {
    key: "container"
    value {
      s: ""
    }
  }
  attr {
    key: "dtype"
    value {
      type: DT_FLOAT
    }
  }
  attr {
    key: "shape"
    value {
      shape {
        dim {
          size: 3
        }
        dim {
          size: 3
        }
        dim {
          size: 96
        }
        dim {
          size: 1
        }
      }
    }
  }
  attr {
    key: "shared_name"
    value {
      s: ""
    }
  }
}
node {
  name: "MobilenetV2/expanded_conv_1/depthwise/depthwise_weights/Assign"
  op: "Assign"
  input: "MobilenetV2/expanded_conv_1/depthwise/depthwise_weights"
  input: "MobilenetV2/expanded_conv_1/depthwise/depthwise_weights/Initializer/truncated_normal"
  attr {
    key: "T"
    value {
      type: DT_FLOAT
    }
  }
  attr {
    key: "_class"
    value {
      list {
        s: "loc:@MobilenetV2/expanded_conv_1/depthwise/depthwise_weights"
      }
    }
  }
  attr {
    key: "use_locking"
    value {
      b: true
    }
  }
  attr {
    key: "validate_shape"
    value {
      b: true
    }
  }
}
node {
  name: "MobilenetV2/expanded_conv_1/depthwise/depthwise_weights/read"
  op: "Identity"
  input: "MobilenetV2/expanded_conv_1/depthwise/depthwise_weights"
  attr {
    key: "T"
    value {
      type: DT_FLOAT
    }
  }
  attr {
    key: "_class"
    value {
      list {
        s: "loc:@MobilenetV2/expanded_conv_1/depthwise/depthwise_weights"
      }
    }
  }
}
node {
  name: "MobilenetV2/expanded_conv_1/depthwise/depthwise/Shape"
  op: "Const"
  attr {
    key: "dtype"
    value {
      type: DT_INT32
    }
  }
  attr {
    key: "value"
    value {
      tensor {
        dtype: DT_INT32
        tensor_shape {
          dim {
            size: 4
          }
        }
        tensor_content: "\003\000\000\000\003\000\000\000`\000\000\000\001\000\000\000"
      }
    }
  }
}
node {
  name: "MobilenetV2/expanded_conv_1/depthwise/depthwise/dilation_rate"
  op: "Const"
  attr {
    key: "dtype"
    value {
      type: DT_INT32
    }
  }
  attr {
    key: "value"
    value {
      tensor {
        dtype: DT_INT32
        tensor_shape {
          dim {
            size: 2
          }
        }
        tensor_content: "\001\000\000\000\001\000\000\000"
      }
    }
  }
}
node {
  name: "MobilenetV2/expanded_conv_1/depthwise/depthwise"
  op: "DepthwiseConv2dNative"
  input: "MobilenetV2/expanded_conv_1/expansion_output"
  input: "MobilenetV2/expanded_conv_1/depthwise/depthwise_weights/read"
  attr {
    key: "T"
    value {
      type: DT_FLOAT
    }
  }
  attr {
    key: "data_format"
    value {
      s: "NHWC"
    }
  }
  attr {
    key: "dilations"
    value {
      list {
        i: 1
        i: 1
        i: 1
        i: 1
      }
    }
  }
  attr {
    key: "padding"
    value {
      s: "SAME"
    }
  }
  attr {
    key: "strides"
    value {
      list {
        i: 1
        i: 2
        i: 2
        i: 1
      }
    }
  }
}
node {
  name: "MobilenetV2/expanded_conv_1/depthwise/BatchNorm/gamma/Initializer/ones"
  op: "Const"
  attr {
    key: "_class"
    value {
      list {
        s: "loc:@MobilenetV2/expanded_conv_1/depthwise/BatchNorm/gamma"
      }
    }
  }
  attr {
    key: "dtype"
    value {
      type: DT_FLOAT
    }
  }
  attr {
    key: "value"
    value {
      tensor {
        dtype: DT_FLOAT
        tensor_shape {
          dim {
            size: 96
          }
        }
        float_val: 1.0
      }
    }
  }
}
node {
  name: "MobilenetV2/expanded_conv_1/depthwise/BatchNorm/gamma"
  op: "VariableV2"
  attr {
    key: "_class"
    value {
      list {
        s: "loc:@MobilenetV2/expanded_conv_1/depthwise/BatchNorm/gamma"
      }
    }
  }
  attr {
    key: "container"
    value {
      s: ""
    }
  }
  attr {
    key: "dtype"
    value {
      type: DT_FLOAT
    }
  }
  attr {
    key: "shape"
    value {
      shape {
        dim {
          size: 96
…
        s: "loc:@MobilenetV2/expanded_conv_16/depthwise/weights_quant/min"
      }
    }
  }
  attr {
    key: "use_locking"
    value {
      b: true
    }
  }
  attr {
    key: "validate_shape"
    value {
      b: true
    }
  }
}
node {
  name: "MobilenetV2/expanded_conv_16/depthwise/weights_quant/min/read"
  op: "Identity"
  input: "MobilenetV2/expanded_conv_16/depthwise/weights_quant/min"
  attr {
    key: "T"
    value {
      type: DT_FLOAT
    }
  }
  attr {
    key: "_class"
    value {
      list {
        s: "loc:@MobilenetV2/expanded_conv_16/depthwise/weights_quant/min"
      }
    }
  }
}
node {
  name: "MobilenetV2/expanded_conv_16/depthwise/weights_quant/max/Initializer/Const"
  op: "Const"
  attr {
    key: "_class"
    value {
      list {
        s: "loc:@MobilenetV2/expanded_conv_16/depthwise/weights_quant/max"
      }
    }
  }
  attr {
    key: "dtype"
    value {
      type: DT_FLOAT
    }
  }
  attr {
    key: "value"
    value {
      tensor {
        dtype: DT_FLOAT
        tensor_shape {
        }
        float_val: 6.0
      }
    }
  }
}
node {
  name: "MobilenetV2/expanded_conv_16/depthwise/weights_quant/max"
  op: "VariableV2"
  attr {
    key: "_class"
    value {
      list {
        s: "loc:@MobilenetV2/expanded_conv_16/depthwise/weights_quant/max"
      }
    }
  }
  attr {
    key: "container"
    value {
      s: ""
    }
  }
  attr {
    key: "dtype"
    value {
      type: DT_FLOAT
    }
  }
  attr {
    key: "shape"
    value {
      shape {
      }
    }
  }
  attr {
    key: "shared_name"
    value {
      s: ""
    }
  }
}
node {
  name: "MobilenetV2/expanded_conv_16/depthwise/weights_quant/max/Assign"
  op: "Assign"
  input: "MobilenetV2/expanded_conv_16/depthwise/weights_quant/max"
  input: "MobilenetV2/expanded_conv_16/depthwise/weights_quant/max/Initializer/Const"
  attr {
    key: "T"
    value {
      type: DT_FLOAT
    }
  }
  attr {
    key: "_class"
    value {
      list {
        s: "loc:@MobilenetV2/expanded_conv_16/depthwise/weights_quant/max"
      }
    }
  }
  attr {
    key: "use_locking"
    value {
      b: true
    }
  }
  attr {
    key: "validate_shape"
    value {
      b: true
    }
  }
}
node {
  name: "MobilenetV2/expanded_conv_16/depthwise/weights_quant/max/read"
  op: "Identity"
  input: "MobilenetV2/expanded_conv_16/depthwise/weights_quant/max"
  attr {
    key: "T"
    value {
      type: DT_FLOAT
    }
  }
  attr {
    key: "_class"
    value {
      list {
        s: "loc:@MobilenetV2/expanded_conv_16/depthwise/weights_quant/max"
      }
    }
  }
}
node {
  name: "MobilenetV2/expanded_conv_16/depthwise/weights_quant/FakeQuantWithMinMaxVars"
  op: "FakeQuantWithMinMaxVars"
  input: "MobilenetV2/expanded_conv_16/depthwise/mul_fold"
  input: "MobilenetV2/expanded_conv_16/depthwise/weights_quant/min/read"
  input: "MobilenetV2/expanded_conv_16/depthwise/weights_quant/max/read"
  attr {
    key: "narrow_range"
    value {
      b: true
    }
  }
  attr {
    key: "num_bits"
    value {
      i: 8
    }
  }
}
node {
  name: "MobilenetV2/expanded_conv_16/depthwise/act_quant/min/Initializer/Const"
  op: "Const"
  attr {
    key: "_class"
    value {
      list {
        s: "loc:@MobilenetV2/expanded_conv_16/depthwise/act_quant/min"
      }
    }
  }
  attr {
    key: "dtype"
    value {
      type: DT_FLOAT
    }
  }
  attr {
    key: "value"
    value {
      tensor {
        dtype: DT_FLOAT
        tensor_shape {
        }
        float_val: 0.0
      }
    }
  }
}
node {
  name: "MobilenetV2/expanded_conv_16/depthwise/act_quant/min"
  op: "VariableV2"
  attr {
    key: "_class"
    value {
      list {
        s: "loc:@MobilenetV2/expanded_conv_16/depthwise/act_quant/min"
      }
    }
  }
  attr {
    key: "container"
    value {
      s: ""
    }
  }
  attr {
    key: "dtype"
    value {
      type: DT_FLOAT
    }
  }
  attr {
    key: "shape"
    value {
      shape {
      }
    }
  }
  attr {
    key: "shared_name"
    value {
      s: ""
    }
  }
}
node {
  name: "MobilenetV2/expanded_conv_16/depthwise/act_quant/min/Assign"
  op: "Assign"
  input: "MobilenetV2/expanded_conv_16/depthwise/act_quant/min"
  input: "MobilenetV2/expanded_conv_16/depthwise/act_quant/min/Initializer/Const"
  attr {
    key: "T"
    value {
      type: DT_FLOAT
    }
  }
  attr {
    key: "_class"
    value {
      list {
        s: "loc:@MobilenetV2/expanded_conv_16/depthwise/act_quant/min"
      }
    }
  }
  attr {
    key: "use_locking"
    value {
      b: true
    }
  }
  attr {
    key: "validate_shape"
    value {
      b: true
    }
  }
}
node {
  name: "MobilenetV2/expanded_conv_16/depthwise/act_quant/min/read"
  op: "Identity"
  input: "MobilenetV2/expanded_conv_16/depthwise/act_quant/min"
  attr {
    key: "T"
    value {
      type: DT_FLOAT
    }
  }
  attr {
    key: "_class"
    value {
      list {
        s: "loc:@MobilenetV2/expanded_conv_16/depthwise/act_quant/min"
      }
    }
  }
}
node {
  name: "MobilenetV2/expanded_conv_16/depthwise/act_quant/max/Initializer/Const"
  op: "Const"
  attr {
    key: "_class"
    value {
      list {
        s: "loc:@MobilenetV2/expanded_conv_16/depthwise/act_quant/max"
      }
    }
  }
  attr {
    key: "dtype"
    value {
      type: DT_FLOAT
    }
  }
  attr {
    key: "value"
    value {
      tensor {
        dtype: DT_FLOAT
        tensor_shape {
        }
        float_val: 6.0
      }
    }
  }
}
node {
  name: "MobilenetV2/expanded_conv_16/depthwise/act_quant/max"
  op: "VariableV2"
  attr {
    key: "_class"
    value {
      list {
        s: "loc:@MobilenetV2/expanded_conv_16/depthwise/act_quant/max"
      }
    }
  }
  attr {
    key: "container"
    value {
      s: ""
    }
  }
  attr {
    key: "dtype"
    value {
      type: DT_FLOAT
    }
  }
  attr {
    key: "shape"
    value {
      shape {
      }
    }
  }
  attr {
    key: "shared_name"
    value {
      s: ""
    }
  }
}
node {
  name: "MobilenetV2/expanded_conv_16/depthwise/act_quant/max/Assign"
  op: "Assign"
  input: "MobilenetV2/expanded_conv_16/depthwise/act_quant/max"
  input: "MobilenetV2/expanded_conv_16/depthwise/act_quant/max/Initializer/Const"
  attr {
    key: "T"
    value {
      type: DT_FLOAT
    }
  }
  attr {
    key: "_class"
    value {
      list {
        s: "loc:@MobilenetV2/expanded_conv_16/depthwise/act_quant/max"
      }
    }
  }
  attr {
    key: "use_locking"
    value {
      b: true
    }
  }
  attr {
    key: "validate_shape"
    value {
      b: true
    }
  }
}
node {
  name: "MobilenetV2/expanded_conv_16/depthwise/act_quant/max/read"
  op: "Identity"
  input: "MobilenetV2/expanded_conv_16/depthwise/act_quant/max"
  attr {
    key: "T"
    value {
      type: DT_FLOAT
    }
  }
  attr {
    key: "_class"
    value {
      list {
        s: "loc:@MobilenetV2/expanded_conv_16/depthwise/act_quant/max"
      }
    }
  }
}
node {
  name: "MobilenetV2/expanded_conv_16/depthwise/act_quant/FakeQuantWithMinMaxVars"
  op: "FakeQuantWithMinMaxVars"
  input: "MobilenetV2/expanded_conv_16/depthwise/Relu6"
  input: "MobilenetV2/expanded_conv_16/depthwise/act_quant/min/read"
  input: "MobilenetV2/expanded_conv_16/depthwise/act_quant/max/read"
  attr {
    key: "narrow_range"
    value {
      b: false
    }
  }
  attr {
    key: "num_bits"
    value {
      i: 8
    }
  }
}
node {
  name: "MobilenetV2/expanded_conv_16/project/weights_quant/min/Initializer/Const"
  op: "Const"
  attr {
    key: "_class"
    value {
      list {
        s: "loc:@MobilenetV2/expanded_conv_16/project/weights_quant/min"
      }
    }
  }
  attr {
    key: "dtype"
    value {
      type: DT_FLOAT
    }
  }
  attr {
    key: "value"
    value {
      tensor {
        dtype: DT_FLOAT
        tensor_shape {
        }
        float_val: -6.0
      }
    }
  }
}
node {
  name: "MobilenetV2/expanded_conv_16/project/weights_quant/min"
  op: "VariableV2"
  attr {
    key: "_class"
    value {
      list {
        s: "loc:@MobilenetV2/expanded_conv_16/project/weights_quant/min"
      }
    }
  }
  attr {
    key: "container"
    value {
      s: ""
    }
  }
  attr {
    key: "dtype"
    value {
      type: DT_FLOAT
    }
  }
  attr {
    key: "shape"
    value {
      shape {
      }
    }
  }
  attr {
    key: "shared_name"
    value {
      s: ""
    }
  }
}
node {
  name: "MobilenetV2/expanded_conv_16/project/weights_quant/min/Assign"
  op: "Assign"
  input: "MobilenetV2/expanded_conv_16/project/weights_quant/min"
  input: "MobilenetV2/expanded_conv_16/project/weights_quant/min/Initializer/Const"
  attr {
    key: "T"
    value {
      type: DT_FLOAT
    }
  }
  attr {
    key: "_class"
    value {
      list {
        s: "loc:@MobilenetV2/expanded_conv_16/project/weights_quant/min"
      }
    }
  }
  attr {
    key: "use_locking"
    value {
      b: true
    }
  }
  attr {
    key: "validate_shape"
    value {
      b: true
    }
  }
}
node {
  name: "MobilenetV2/expanded_conv_16/project/weights_quant/min/read"
  op: "Identity"
  input: "MobilenetV2/expanded_conv_16/project/weights_quant/min"
  attr {
    key: "T"
    value {
      type: DT_FLOAT
    }
  }
  attr {
    key: "_class"
    value {
      list {
        s: "loc:@MobilenetV2/expanded_conv_16/project/weights_quant/min"
      }
    }
  }
}
node {
  name: "MobilenetV2/expanded_conv_16/project/weights_quant/max/Initializer/Const"
  op: "Const"
  attr {
    key: "_class"
    value {
      list {
        s: "loc:@MobilenetV2/expanded_conv_16/project/weights_quant/max"
      }
    }
  }
  attr {
    key: "dtype"
    value {
      type: DT_FLOAT
    }
  }
  attr {
    key: "value"
    value {
      tensor {
        dtype: DT_FLOAT
        tensor_shape {
        }
        float_val: 6.0
      }
    }
  }
}
node {
  name: "MobilenetV2/expanded_conv_16/project/weights_quant/max"
  op: "VariableV2"
  attr {
    key: "_class"
    value {
      list {
        s: "loc:@MobilenetV2/expanded_conv_16/project/weights_quant/max"
      }
    }
  }
  attr {
    key: "container"
    value {
      s: ""
    }
  }
  attr {
    key: "dtype"
    value {
      type: DT_FLOAT
    }
  }
  attr {
    key: "shape"
    value {
      shape {
      }
    }
  }
  attr {
    key: "shared_name"
    value {
      s: ""
    }
  }
}
node {
  name: "MobilenetV2/expanded_conv_16/project/weights_quant/max/Assign"
  op: "Assign"
  input: "MobilenetV2/expanded_conv_16/project/weights_quant/max"
  input: "MobilenetV2/expanded_conv_16/project/weights_quant/max/Initializer/Const"
  attr {
    key: "T"
    value {
      type: DT_FLOAT
    }
  }
  attr {
    key: "_class"
    value {
      list {
        s: "loc:@MobilenetV2/expanded_conv_16/project/weights_quant/max"
      }
    }
  }
  attr {
    key: "use_locking"
    value {
      b: true
    }
  }
  attr {
    key: "validate_shape"
    value {
      b: true
    }
  }
}
node {
  name: "MobilenetV2/expanded_conv_16/project/weights_quant/max/read"
  op: "Identity"
  input: "MobilenetV2/expanded_conv_16/project/weights_quant/max"
  attr {
    key: "T"
    value {
      type: DT_FLOAT
    }
  }
  attr {
    key: "_class"
    value {
      list {
        s: "loc:@MobilenetV2/expanded_conv_16/project/weights_quant/max"
      }
    }
  }
}
node {
  name: "MobilenetV2/expanded_conv_16/project/weights_quant/FakeQuantWithMinMaxVars"
  op: "FakeQuantWithMinMaxVars"
  input: "MobilenetV2/expanded_conv_16/project/mul_fold"
  input: "MobilenetV2/expanded_conv_16/project/weights_quant/min/read"
  input: "MobilenetV2/expanded_conv_16/project/weights_quant/max/read"
  attr {
    key: "narrow_range"
    value {
      b: true
    }
  }
  attr {
    key: "num_bits"
    value {
      i: 8
    }
  }
}
node {
  name: "MobilenetV2/expanded_conv_16/project/act_quant/min/Initializer/Const"
  op: "Const"
  attr {
    key: "_class"
    value {
      list {
        s: "loc:@MobilenetV2/expanded_conv_16/project/act_quant/min"
      }
    }
  }
  attr {
    key: "dtype"
    value {
      type: DT_FLOAT
    }
  }
  attr {
    key: "value"
    value {
      tensor {
        dtype: DT_FLOAT
        tensor_shape {
        }
        float_val: 0.0
      }
    }
  }
}
node {
  name: "MobilenetV2/expanded_conv_16/project/act_quant/min"
  op: "VariableV2"
  attr {
    key: "_class"
    value {
      list {
        s: "loc:@MobilenetV2/expanded_conv_16/project/act_quant/min"
      }
    }
  }
  attr {
    key: "container"
    value {
      s: ""
    }
  }
  attr {
    key: "dtype"
    value {
      type: DT_FLOAT
    }
  }
  attr {
    key: "shape"
    value {
      shape {
      }
    }
  }
  attr {
    key: "shared_name"
    value {
      s: ""
    }
  }
}
node {
  name: "MobilenetV2/expanded_conv_16/project/act_quant/min/Assign"
  op: "Assign"
  input: "MobilenetV2/expanded_conv_16/project/act_quant/min"
  input: "MobilenetV2/expanded_conv_16/project/act_quant/min/Initializer/Const"
  attr {
    key: "T"
    value {
      type: DT_FLOAT
    }
  }
  attr {
    key: "_class"
    value {
      list {
        s: "loc:@MobilenetV2/expanded_conv_16/project/act_quant/min"
      }
    }
  }
  attr {
    key: "use_locking"
    value {
      b: true
    }
  }
  attr {
    key: "validate_shape"
    value {
      b: true
    }
  }
}
node {
  name: "MobilenetV2/expanded_conv_16/project/act_quant/min/read"
  op: "Identity"
  input: "MobilenetV2/expanded_conv_16/project/act_quant/min"
  attr {
    key: "T"
    value {
      type: DT_FLOAT
    }
  }
  attr {
    key: "_class"
    value {
      list {
        s: "loc:@MobilenetV2/expanded_conv_16/project/act_quant/min"
      }
    }
  }
}
node {
  name: "MobilenetV2/expanded_conv_16/project/act_quant/max/Initializer/Const"
  op: "Const"
  attr {
    key: "_class"
    value {
      list {
        s: "loc:@MobilenetV2/expanded_conv_16/project/act_quant/max"
      }
    }
  }
  attr {
    key: "dtype"
    value {
      type: DT_FLOAT
    }
  }
  attr {
    key: "value"
    value {
      tensor {
        dtype: DT_FLOAT
        tensor_shape {
        }
        float_val: 6.0
      }
    }
  }
}
node {
  name: "MobilenetV2/expanded_conv_16/project/act_quant/max"
  op: "VariableV2"
  attr {
    key: "_class"
    value {
      list {
        s: "loc:@MobilenetV2/expanded_conv_16/project/act_quant/max"
      }
    }
  }
  attr {
    key: "container"
    value {
      s: ""
    }
  }
  attr {
    key: "dtype"
    value {
      type: DT_FLOAT
    }
  }
  attr {
    key: "shape"
    value {
      shape {
      }
    }
  }
  attr {
    key: "shared_name"
    value {
      s: ""
    }
  }
}
node {
  name: "MobilenetV2/expanded_conv_16/project/act_quant/max/Assign"
  op: "Assign"
  input: "MobilenetV2/expanded_conv_16/project/act_quant/max"
  input: "MobilenetV2/expanded_conv_16/project/act_quant/max/Initializer/Const"
  attr {
    key: "T"
    value {
      type: DT_FLOAT
    }
  }
  attr {
    key: "_class"
    value {
      list {
        s: "loc:@MobilenetV2/expanded_conv_16/project/act_quant/max"
      }
    }
  }
  attr {
    key: "use_locking"
    value {
      b: true
    }
  }
  attr {
    key: "validate_shape"
    value {
      b: true
    }
  }
}
node {
  name: "MobilenetV2/expanded_conv_16/project/act_quant/max/read"
  op: "Identity"
  input: "MobilenetV2/expanded_conv_16/project/act_quant/max"
  attr {
    key: "T"
    value {
      type: DT_FLOAT
    }
  }
  attr {
    key: "_class"
    value {
      list {
        s: "loc:@MobilenetV2/expanded_conv_16/project/act_quant/max"
      }
    }
  }
}
node {
  name: "MobilenetV2/expanded_conv_16/project/act_quant/FakeQuantWithMinMaxVars"
  op: "FakeQuantWithMinMaxVars"
  input: "MobilenetV2/expanded_conv_16/project/Identity"
  input: "MobilenetV2/expanded_conv_16/project/act_quant/min/read"
  input: "MobilenetV2/expanded_conv_16/project/act_quant/max/read"
  attr {
    key: "narrow_range"
    value {
      b: false
    }
  }
  attr {
    key: "num_bits"
    value {
      i: 8
    }
  }
}
node {
  name: "MobilenetV2/Conv_1/weights_quant/min/Initializer/Const"
  op: "Const"
  attr {
    key: "_class"
    value {
      list {
        s: "loc:@MobilenetV2/Conv_1/weights_quant/min"
      }
    }
  }
  attr {
    key: "dtype"
    value {
      type: DT_FLOAT
    }
  }
  attr {
    key: "value"
    value {
      tensor {
        dtype: DT_FLOAT
        tensor_shape {
        }
        float_val: -6.0
      }
    }
  }
}
node {
  name: "MobilenetV2/Conv_1/weights_quant/min"
  op: "VariableV2"
  attr {
    key: "_class"
    value {
      list {
        s: "loc:@MobilenetV2/Conv_1/weights_quant/min"
      }
    }
  }
  attr {
    key: "container"
    value {
      s: ""
    }
  }
  attr {
    key: "dtype"
    value {
      type: DT_FLOAT
    }
  }
  attr {
    key: "shape"
    value {
      shape {
      }
    }
  }
  attr {
    key: "shared_name"
    value {
      s: ""
    }
  }
}
node {
  name: "MobilenetV2/Conv_1/weights_quant/min/Assign"
  op: "Assign"
  input: "MobilenetV2/Conv_1/weights_quant/min"
  input: "MobilenetV2/Conv_1/weights_quant/min/Initializer/Const"
  attr {
    key: "T"
    value {
      type: DT_FLOAT
    }
  }
  attr {
    key: "_class"
    value {
      list {
        s: "loc:@MobilenetV2/Conv_1/weights_quant/min"
      }
    }
  }
  attr {
    key: "use_locking"
    value {
      b: true
    }
  }
  attr {
    key: "validate_shape"
    value {
      b: true
    }
  }
}
node {
  name: "MobilenetV2/Conv_1/weights_quant/min/read"
  op: "Identity"
  input: "MobilenetV2/Conv_1/weights_quant/min"
  attr {
    key: "T"
    value {
      type: DT_FLOAT
    }
  }
  attr {
    key: "_class"
    value {
      list {
        s: "loc:@MobilenetV2/Conv_1/weights_quant/min"
      }
    }
  }
}
node {
  name: "MobilenetV2/Conv_1/weights_quant/max/Initializer/Const"
  op: "Const"
  attr {
    key: "_class"
    value {
      list {
        s: "loc:@MobilenetV2/Conv_1/weights_quant/max"
      }
    }
  }
  attr {
    key: "dtype"
    value {
      type: DT_FLOAT
    }
  }
  attr {
    key: "value"
    value {
      tensor {
        dtype: DT_FLOAT
        tensor_shape {
        }
        float_val: 6.0
      }
    }
  }
}
node {
  name: "MobilenetV2/Conv_1/weights_quant/max"
  op: "VariableV2"
  attr {
    key: "_class"
    value {
      list {
        s: "loc:@MobilenetV2/Conv_1/weights_quant/max"
      }
    }
  }
  attr {
    key: "container"
    value {
      s: ""
    }
  }
  attr {
    key: "dtype"
    value {
      type: DT_FLOAT
    }
  }
  attr {
    key: "shape"
    value {
      shape {
      }
    }
  }
  attr {
    key: "shared_name"
    value {
      s: ""
    }
  }
}
node {
  name: "MobilenetV2/Conv_1/weights_quant/max/Assign"
  op: "Assign"
  input: "MobilenetV2/Conv_1/weights_quant/max"
  input: "MobilenetV2/Conv_1/weights_quant/max/Initializer/Const"
  attr {
    key: "T"
    value {
      type: DT_FLOAT
    }
  }
  attr {
    key: "_class"
    value {
      list {
        s: "loc:@MobilenetV2/Conv_1/weights_quant/max"
      }
    }
  }
  attr {
    key: "use_locking"
    value {
      b: true
    }
  }
  attr {
    key: "validate_shape"
    value {
      b: true
    }
  }
}
node {
  name: "MobilenetV2/Conv_1/weights_quant/max/read"
  op: "Identity"
  input: "MobilenetV2/Conv_1/weights_quant/max"
  attr {
    key: "T"
    value {
      type: DT_FLOAT
    }
  }
  attr {
    key: "_class"
    value {
      list {
        s: "loc:@MobilenetV2/Conv_1/weights_quant/max"
      }
    }
  }
}
node {
  name: "MobilenetV2/Conv_1/weights_quant/FakeQuantWithMinMaxVars"
  op: "FakeQuantWithMinMaxVars"
  input: "MobilenetV2/Conv_1/mul_fold"
  input: "MobilenetV2/Conv_1/weights_quant/min/read"
  input: "MobilenetV2/Conv_1/weights_quant/max/read"
  attr {
    key: "narrow_range"
    value {
      b: true
    }
  }
  attr {
    key: "num_bits"
    value {
      i: 8
    }
  }
}
node {
  name: "MobilenetV2/Conv_1/act_quant/min/Initializer/Const"
  op: "Const"
  attr {
    key: "_class"
    value {
      list {
        s: "loc:@MobilenetV2/Conv_1/act_quant/min"
      }
    }
  }
  attr {
    key: "dtype"
    value {
      type: DT_FLOAT
    }
  }
  attr {
    key: "value"
    value {
      tensor {
        dtype: DT_FLOAT
        tensor_shape {
        }
        float_val: 0.0
      }
    }
  }
}
node {
  name: "MobilenetV2/Conv_1/act_quant/min"
  op: "VariableV2"
  attr {
    key: "_class"
    value {
      list {
        s: "loc:@MobilenetV2/Conv_1/act_quant/min"
      }
    }
  }
  attr {
    key: "container"
    value {
      s: ""
    }
  }
  attr {
    key: "dtype"
    value {
      type: DT_FLOAT
    }
  }
  attr {
    key: "shape"
    value {
      shape {
      }
    }
  }
  attr {
    key: "shared_name"
    value {
      s: ""
    }
  }
}
node {
  name: "MobilenetV2/Conv_1/act_quant/min/Assign"
  op: "Assign"
  input: "MobilenetV2/Conv_1/act_quant/min"
  input: "MobilenetV2/Conv_1/act_quant/min/Initializer/Const"
  attr {
    key: "T"
    value {
      type: DT_FLOAT
    }
  }
  attr {
    key: "_class"
    value {
      list {
        s: "loc:@MobilenetV2/Conv_1/act_quant/min"
      }
    }
  }
  attr {
    key: "use_locking"
    value {
      b: true
    }
  }
  attr {
    key: "validate_shape"
    value {
      b: true
    }
  }
}
node {
  name: "MobilenetV2/Conv_1/act_quant/min/read"
  op: "Identity"
  input: "MobilenetV2/Conv_1/act_quant/min"
  attr {
    key: "T"
    value {
      type: DT_FLOAT
    }
  }
  attr {
    key: "_class"
    value {
      list {
        s: "loc:@MobilenetV2/Conv_1/act_quant/min"
      }
    }
  }
}
node {
  name: "MobilenetV2/Conv_1/act_quant/max/Initializer/Const"
  op: "Const"
  attr {
    key: "_class"
    value {
      list {
        s: "loc:@MobilenetV2/Conv_1/act_quant/max"
      }
    }
  }
  attr {
    key: "dtype"
    value {
      type: DT_FLOAT
    }
  }
  attr {
    key: "value"
    value {
      tensor {
        dtype: DT_FLOAT
        tensor_shape {
        }
        float_val: 6.0
      }
    }
  }
}
node {
  name: "MobilenetV2/Conv_1/act_quant/max"
  op: "VariableV2"
  attr {
    key: "_class"
    value {
      list {
        s: "loc:@MobilenetV2/Conv_1/act_quant/max"
      }
    }
  }
  attr {
    key: "container"
    value {
      s: ""
    }
  }
  attr {
    key: "dtype"
    value {
      type: DT_FLOAT
    }
  }
  attr {
    key: "shape"
    value {
      shape {
      }
    }
  }
  attr {
    key: "shared_name"
    value {
      s: ""
    }
  }
}
node {
  name: "MobilenetV2/Conv_1/act_quant/max/Assign"
  op: "Assign"
  input: "MobilenetV2/Conv_1/act_quant/max"
  input: "MobilenetV2/Conv_1/act_quant/max/Initializer/Const"
  attr {
    key: "T"
    value {
      type: DT_FLOAT
    }
  }
  attr {
    key: "_class"
    value {
      list {
        s: "loc:@MobilenetV2/Conv_1/act_quant/max"
      }
    }
  }
  attr {
    key: "use_locking"
    value {
      b: true
    }
  }
  attr {
    key: "validate_shape"
    value {
      b: true
    }
  }
}
node {
  name: "MobilenetV2/Conv_1/act_quant/max/read"
  op: "Identity"
  input: "MobilenetV2/Conv_1/act_quant/max"
  attr {
    key: "T"
    value {
      type: DT_FLOAT
    }
  }
  attr {
    key: "_class"
    value {
      list {
        s: "loc:@MobilenetV2/Conv_1/act_quant/max"
      }
    }
  }
}
node {
  name: "MobilenetV2/Conv_1/act_quant/FakeQuantWithMinMaxVars"
  op: "FakeQuantWithMinMaxVars"
  input: "MobilenetV2/Conv_1/Relu6"
  input: "MobilenetV2/Conv_1/act_quant/min/read"
  input: "MobilenetV2/Conv_1/act_quant/max/read"
  attr {
    key: "narrow_range"
    value {
      b: false
    }
  }
  attr {
    key: "num_bits"
    value {
      i: 8
    }
  }
}
node {
  name: "MobilenetV2/Logits/Conv2d_1c_1x1/weights_quant/min/Initializer/Const"
  op: "Const"
  attr {
    key: "_class"
    value {
      list {
        s: "loc:@MobilenetV2/Logits/Conv2d_1c_1x1/weights_quant/min"
      }
    }
  }
  attr {
    key: "dtype"
    value {
      type: DT_FLOAT
    }
  }
  attr {
    key: "value"
    value {
      tensor {
        dtype: DT_FLOAT
        tensor_shape {
        }
        float_val: -6.0
      }
    }
  }
}
node {
  name: "MobilenetV2/Logits/Conv2d_1c_1x1/weights_quant/min"
  op: "VariableV2"
  attr {
    key: "_class"
    value {
      list {
        s: "loc:@MobilenetV2/Logits/Conv2d_1c_1x1/weights_quant/min"
      }
    }
  }
  attr {
    key: "container"
    value {
      s: ""
    }
  }
  attr {
    key: "dtype"
    value {
      type: DT_FLOAT
    }
  }
  attr {
    key: "shape"
    value {
      shape {
      }
    }
  }
  attr {
    key: "shared_name"
    value {
      s: ""
    }
  }
}
node {
  name: "MobilenetV2/Logits/Conv2d_1c_1x1/weights_quant/min/Assign"
  op: "Assign"
  input: "MobilenetV2/Logits/Conv2d_1c_1x1/weights_quant/min"
  input: "MobilenetV2/Logits/Conv2d_1c_1x1/weights_quant/min/Initializer/Const"
  attr {
    key: "T"
    value {
      type: DT_FLOAT
    }
  }
  attr {
    key: "_class"
    value {
      list {
        s: "loc:@MobilenetV2/Logits/Conv2d_1c_1x1/weights_quant/min"
      }
    }
  }
  attr {
    key: "use_locking"
    value {
      b: true
    }
  }
  attr {
    key: "validate_shape"
    value {
      b: true
    }
  }
}
node {
  name: "MobilenetV2/Logits/Conv2d_1c_1x1/weights_quant/min/read"
  op: "Identity"
  input: "MobilenetV2/Logits/Conv2d_1c_1x1/weights_quant/min"
  attr {
    key: "T"
    value {
      type: DT_FLOAT
    }
  }
  attr {
    key: "_class"
    value {
      list {
        s: "loc:@MobilenetV2/Logits/Conv2d_1c_1x1/weights_quant/min"
      }
    }
  }
}
node {
  name: "MobilenetV2/Logits/Conv2d_1c_1x1/weights_quant/max/Initializer/Const"
  op: "Const"
  attr {
    key: "_class"
    value {
      list {
        s: "loc:@MobilenetV2/Logits/Conv2d_1c_1x1/weights_quant/max"
      }
    }
  }
  attr {
    key: "dtype"
    value {
      type: DT_FLOAT
    }
  }
  attr {
    key: "value"
    value {
      tensor {
        dtype: DT_FLOAT
        tensor_shape {
        }
        float_val: 6.0
      }
    }
  }
}
node {
  name: "MobilenetV2/Logits/Conv2d_1c_1x1/weights_quant/max"
  op: "VariableV2"
  attr {
    key: "_class"
    value {
      list {
        s: "loc:@MobilenetV2/Logits/Conv2d_1c_1x1/weights_quant/max"
      }
    }
  }
  attr {
    key: "container"
    value {
      s: ""
    }
  }
  attr {
    key: "dtype"
    value {
      type: DT_FLOAT
    }
  }
  attr {
    key: "shape"
    value {
      shape {
      }
    }
  }
  attr {
    key: "shared_name"
    value {
      s: ""
    }
  }
}
node {
  name: "MobilenetV2/Logits/Conv2d_1c_1x1/weights_quant/max/Assign"
  op: "Assign"
  input: "MobilenetV2/Logits/Conv2d_1c_1x1/weights_quant/max"
  input: "MobilenetV2/Logits/Conv2d_1c_1x1/weights_quant/max/Initializer/Const"
  attr {
    key: "T"
    value {
      type: DT_FLOAT
    }
  }
  attr {
    key: "_class"
    value {
      list {
        s: "loc:@MobilenetV2/Logits/Conv2d_1c_1x1/weights_quant/max"
      }
    }
  }
  attr {
    key: "use_locking"
    value {
      b: true
    }
  }
  attr {
    key: "validate_shape"
    value {
      b: true
    }
  }
}
node {
  name: "MobilenetV2/Logits/Conv2d_1c_1x1/weights_quant/max/read"
  op: "Identity"
  input: "MobilenetV2/Logits/Conv2d_1c_1x1/weights_quant/max"
  attr {
    key: "T"
    value {
      type: DT_FLOAT
    }
  }
  attr {
    key: "_class"
    value {
      list {
        s: "loc:@MobilenetV2/Logits/Conv2d_1c_1x1/weights_quant/max"
      }
    }
  }
}
node {
  name: "MobilenetV2/Logits/Conv2d_1c_1x1/weights_quant/FakeQuantWithMinMaxVars"
  op: "FakeQuantWithMinMaxVars"
  input: "MobilenetV2/Logits/Conv2d_1c_1x1/weights/read"
  input: "MobilenetV2/Logits/Conv2d_1c_1x1/weights_quant/min/read"
  input: "MobilenetV2/Logits/Conv2d_1c_1x1/weights_quant/max/read"
  attr {
    key: "narrow_range"
    value {
      b: true
    }
  }
  attr {
    key: "num_bits"
    value {
      i: 8
    }
  }
}
node {
  name: "MobilenetV2/Logits/Conv2d_1c_1x1/act_quant/min/Initializer/Const"
  op: "Const"
  attr {
    key: "_class"
    value {
      list {
        s: "loc:@MobilenetV2/Logits/Conv2d_1c_1x1/act_quant/min"
      }
    }
  }
  attr {
    key: "dtype"
    value {
      type: DT_FLOAT
    }
  }
  attr {
    key: "value"
    value {
      tensor {
        dtype: DT_FLOAT
        tensor_shape {
        }
        float_val: 0.0
      }
    }
  }
}
node {
  name: "MobilenetV2/Logits/Conv2d_1c_1x1/act_quant/min"
  op: "VariableV2"
  attr {
    key: "_class"
    value {
      list {
        s: "loc:@MobilenetV2/Logits/Conv2d_1c_1x1/act_quant/min"
      }
    }
  }
  attr {
    key: "container"
    value {
      s: ""
    }
  }
  attr {
    key: "dtype"
    value {
      type: DT_FLOAT
    }
  }
  attr {
    key: "shape"
    value {
      shape {
      }
    }
  }
  attr {
    key: "shared_name"
    value {
      s: ""
    }
  }
}
node {
  name: "MobilenetV2/Logits/Conv2d_1c_1x1/act_quant/min/Assign"
  op: "Assign"
  input: "MobilenetV2/Logits/Conv2d_1c_1x1/act_quant/min"
  input: "MobilenetV2/Logits/Conv2d_1c_1x1/act_quant/min/Initializer/Const"
  attr {
    key: "T"
    value {
      type: DT_FLOAT
    }
  }
  attr {
    key: "_class"
    value {
      list {
        s: "loc:@MobilenetV2/Logits/Conv2d_1c_1x1/act_quant/min"
      }
    }
  }
  attr {
    key: "use_locking"
    value {
      b: true
    }
  }
  attr {
    key: "validate_shape"
    value {
      b: true
    }
  }
}
node {
  name: "MobilenetV2/Logits/Conv2d_1c_1x1/act_quant/min/read"
  op: "Identity"
  input: "MobilenetV2/Logits/Conv2d_1c_1x1/act_quant/min"
  attr {
    key: "T"
    value {
      type: DT_FLOAT
    }
  }
  attr {
    key: "_class"
    value {
      list {
        s: "loc:@MobilenetV2/Logits/Conv2d_1c_1x1/act_quant/min"
      }
    }
  }
}
node {
  name: "MobilenetV2/Logits/Conv2d_1c_1x1/act_quant/max/Initializer/Const"
  op: "Const"
  attr {
    key: "_class"
    value {
      list {
        s: "loc:@MobilenetV2/Logits/Conv2d_1c_1x1/act_quant/max"
      }
    }
  }
  attr {
    key: "dtype"
    value {
      type: DT_FLOAT
    }
  }
  attr {
    key: "value"
    value {
      tensor {
        dtype: DT_FLOAT
        tensor_shape {
        }
        float_val: 6.0
      }
    }
  }
}
node {
  name: "MobilenetV2/Logits/Conv2d_1c_1x1/act_quant/max"
  op: "VariableV2"
  attr {
    key: "_class"
    value {
      list {
        s: "loc:@MobilenetV2/Logits/Conv2d_1c_1x1/act_quant/max"
      }
    }
  }
  attr {
    key: "container"
    value {
      s: ""
    }
  }
  attr {
    key: "dtype"
    value {
      type: DT_FLOAT
    }
  }
  attr {
    key: "shape"
    value {
      shape {
      }
    }
  }
  attr {
    key: "shared_name"
    value {
      s: ""
    }
  }
}
node {
  name: "MobilenetV2/Logits/Conv2d_1c_1x1/act_quant/max/Assign"
  op: "Assign"
  input: "MobilenetV2/Logits/Conv2d_1c_1x1/act_quant/max"
  input: "MobilenetV2/Logits/Conv2d_1c_1x1/act_quant/max/Initializer/Const"
  attr {
    key: "T"
    value {
      type: DT_FLOAT
    }
  }
  attr {
    key: "_class"
    value {
      list {
        s: "loc:@MobilenetV2/Logits/Conv2d_1c_1x1/act_quant/max"
      }
    }
  }
  attr {
    key: "use_locking"
    value {
      b: true
    }
  }
  attr {
    key: "validate_shape"
    value {
      b: true
    }
  }
}
node {
  name: "MobilenetV2/Logits/Conv2d_1c_1x1/act_quant/max/read"
  op: "Identity"
  input: "MobilenetV2/Logits/Conv2d_1c_1x1/act_quant/max"
  attr {
    key: "T"
    value {
      type: DT_FLOAT
    }
  }
  attr {
    key: "_class"
    value {
      list {
        s: "loc:@MobilenetV2/Logits/Conv2d_1c_1x1/act_quant/max"
      }
    }
  }
}
node {
  name: "MobilenetV2/Logits/Conv2d_1c_1x1/act_quant/FakeQuantWithMinMaxVars"
  op: "FakeQuantWithMinMaxVars"
  input: "MobilenetV2/Logits/Conv2d_1c_1x1/BiasAdd"
  input: "MobilenetV2/Logits/Conv2d_1c_1x1/act_quant/min/read"
  input: "MobilenetV2/Logits/Conv2d_1c_1x1/act_quant/max/read"
  attr {
    key: "narrow_range"
    value {
      b: false
    }
  }
  attr {
    key: "num_bits"
    value {
      i: 8
    }
  }
}
node {
  name: "global_step/Initializer/zeros"
  op: "Const"
  attr {
    key: "_class"
    value {
      list {
        s: "loc:@global_step"
      }
    }
  }
  attr {
    key: "dtype"
    value {
      type: DT_INT64
    }
  }
  attr {
    key: "value"
    value {
      tensor {
        dtype: DT_INT64
        tensor_shape {
        }
        int64_val: 0
      }
    }
  }
}
node {
  name: "global_step"
  op: "VariableV2"
  attr {
    key: "_class"
    value {
      list {
        s: "loc:@global_step"
      }
    }
  }
  attr {
    key: "container"
    value {
      s: ""
    }
  }
  attr {
    key: "dtype"
    value {
      type: DT_INT64
    }
  }
  attr {
    key: "shape"
    value {
      shape {
      }
    }
  }
  attr {
    key: "shared_name"
    value {
      s: ""
    }
  }
}
node {
  name: "global_step/Assign"
  op: "Assign"
  input: "global_step"
  input: "global_step/Initializer/zeros"
  attr {
    key: "T"
    value {
      type: DT_INT64
    }
  }
  attr {
    key: "_class"
    value {
      list {
        s: "loc:@global_step"
      }
    }
  }
  attr {
    key: "use_locking"
    value {
      b: true
    }
  }
  attr {
    key: "validate_shape"
    value {
      b: true
    }
  }
}
node {
  name: "global_step/read"
  op: "Identity"
  input: "global_step"
  attr {
    key: "T"
    value {
      type: DT_INT64
    }
  }
  attr {
    key: "_class"
    value {
      list {
        s: "loc:@global_step"
      }
    }
  }
}
node {
  name: "Squeeze"
  op: "Squeeze"
  input: "sub"
  attr {
    key: "T"
    value {
      type: DT_INT64
    }
  }
  attr {
    key: "squeeze_dims"
    value {
      list {
      }
    }
  }
}
node {
  name: "ArgMax/dimension"
  op: "Const"
  attr {
    key: "dtype"
    value {
      type: DT_INT32
    }
  }
  attr {
    key: "value"
    value {
      tensor {
        dtype: DT_INT32
        tensor_shape {
        }
        int_val: 1
      }
    }
  }
}
node {
  name: "ArgMax"
  op: "ArgMax"
  input: "output"
  input: "ArgMax/dimension"
  attr {
    key: "T"
    value {
      type: DT_FLOAT
    }
  }
  attr {
    key: "Tidx"
    value {
      type: DT_INT32
    }
  }
  attr {
    key: "output_type"
    value {
      type: DT_INT64
    }
  }
}
node {
  name: "Equal_2"
  op: "Equal"
  input: "ArgMax"
  input: "Squeeze"
  attr {
    key: "T"
    value {
      type: DT_INT64
    }
  }
}
node {
  name: "ToFloat"
  op: "Cast"
  input: "Equal_2"
  attr {
    key: "DstT"
    value {
      type: DT_FLOAT
    }
  }
  attr {
    key: "SrcT"
    value {
      type: DT_BOOL
    }
  }
}
node {
  name: "accuracy/total/Initializer/zeros"
  op: "Const"
  attr {
    key: "_class"
    value {
      list {
        s: "loc:@accuracy/total"
      }
    }
  }
  attr {
    key: "dtype"
    value {
      type: DT_FLOAT
    }
  }
  attr {
    key: "value"
    value {
      tensor {
        dtype: DT_FLOAT
        tensor_shape {
        }
        float_val: 0.0
      }
    }
  }
}
node {
  name: "accuracy/total"
  op: "VariableV2"
  attr {
    key: "_class"
    value {
      list {
        s: "loc:@accuracy/total"
      }
    }
  }
  attr {
    key: "container"
    value {
      s: ""
    }
  }
  attr {
    key: "dtype"
    value {
      type: DT_FLOAT
    }
  }
  attr {
    key: "shape"
    value {
      shape {
      }
    }
  }
  attr {
    key: "shared_name"
    value {
      s: ""
    }
  }
}
node {
  name: "accuracy/total/Assign"
  op: "Assign"
  input: "accuracy/total"
  input: "accuracy/total/Initializer/zeros"
  attr {
    key: "T"
    value {
      type: DT_FLOAT
    }
  }
  attr {
    key: "_class"
    value {
      list {
        s: "loc:@accuracy/total"
      }
    }
  }
  attr {
    key: "use_locking"
    value {
      b: true
    }
  }
  attr {
    key: "validate_shape"
    value {
      b: true
    }
  }
}
node {
  name: "accuracy/total/read"
  op: "Identity"
  input: "accuracy/total"
  attr {
    key: "T"
    value {
      type: DT_FLOAT
    }
  }
  attr {
    key: "_class"
    value {
      list {
        s: "loc:@accuracy/total"
      }
    }
  }
}
node {
  name: "accuracy/count/Initializer/zeros"
  op: "Const"
  attr {
    key: "_class"
    value {
      list {
        s: "loc:@accuracy/count"
      }
    }
  }
  attr {
    key: "dtype"
    value {
      type: DT_FLOAT
    }
  }
  attr {
    key: "value"
    value {
      tensor {
        dtype: DT_FLOAT
        tensor_shape {
        }
        float_val: 0.0
      }
    }
  }
}
node {
  name: "accuracy/count"
  op: "VariableV2"
  attr {
    key: "_class"
    value {
      list {
        s: "loc:@accuracy/count"
      }
    }
  }
  attr {
    key: "container"
    value {
      s: ""
    }
  }
  attr {
    key: "dtype"
    value {
      type: DT_FLOAT
    }
  }
  attr {
    key: "shape"
    value {
      shape {
      }
    }
  }
  attr {
    key: "shared_name"
    value {
      s: ""
    }
  }
}
node {
  name: "accuracy/count/Assign"
  op: "Assign"
  input: "accuracy/count"
  input: "accuracy/count/Initializer/zeros"
  attr {
    key: "T"
    value {
      type: DT_FLOAT
    }
  }
  attr {
    key: "_class"
    value {
      list {
        s: "loc:@accuracy/count"
      }
    }
  }
  attr {
    key: "use_locking"
    value {
      b: true
    }
  }
  attr {
    key: "validate_shape"
    value {
      b: true
    }
  }
}
node {
  name: "accuracy/count/read"
  op: "Identity"
  input: "accuracy/count"
  attr {
    key: "T"
    value {
      type: DT_FLOAT
    }
  }
  attr {
    key: "_class"
    value {
      list {
        s: "loc:@accuracy/count"
      }
    }
  }
}
node {
  name: "accuracy/Size"
  op: "Const"
  attr {
    key: "dtype"
    value {
      type: DT_INT32
    }
  }
  attr {
    key: "value"
    value {
      tensor {
        dtype: DT_INT32
        tensor_shape {
        }
        int_val: 250
      }
    }
  }
}
node {
  name: "accuracy/ToFloat_1"
  op: "Cast"
  input: "accuracy/Size"
  attr {
    key: "DstT"
    value {
      type: DT_FLOAT
    }
  }
  attr {
    key: "SrcT"
    value {
      type: DT_INT32
    }
  }
}
node {
  name: "accuracy/Const"
  op: "Const"
  attr {
    key: "dtype"
    value {
      type: DT_INT32
    }
  }
  attr {
    key: "value"
    value {
      tensor {
        dtype: DT_INT32
        tensor_shape {
          dim {
            size: 1
          }
        }
        int_val: 0
      }
    }
  }
}
node {
  name: "accuracy/Sum"
  op: "Sum"
  input: "ToFloat"
  input: "accuracy/Const"
  attr {
    key: "T"
    value {
      type: DT_FLOAT
    }
  }
  attr {
    key: "Tidx"
    value {
      type: DT_INT32
    }
  }
  attr {
    key: "keep_dims"
    value {
      b: false
    }
  }
}
node {
  name: "accuracy/AssignAdd"
  op: "AssignAdd"
  input: "accuracy/total"
  input: "accuracy/Sum"
  attr {
    key: "T"
    value {
      type: DT_FLOAT
    }
  }
  attr {
    key: "_class"
    value {
      list {
        s: "loc:@accuracy/total"
      }
    }
  }
  attr {
    key: "use_locking"
    value {
      b: false
    }
  }
}
node {
  name: "accuracy/AssignAdd_1"
  op: "AssignAdd"
  input: "accuracy/count"
  input: "accuracy/ToFloat_1"
  input: "^ToFloat"
  attr {
    key: "T"
    value {
      type: DT_FLOAT
    }
  }
  attr {
    key: "_class"
    value {
      list {
        s: "loc:@accuracy/count"
      }
    }
  }
  attr {
    key: "use_locking"
    value {
      b: false
    }
  }
}
node {
  name: "accuracy/truediv"
  op: "RealDiv"
  input: "accuracy/total/read"
  input: "accuracy/count/read"
  attr {
    key: "T"
    value {
      type: DT_FLOAT
    }
  }
}
node {
  name: "accuracy/zeros_like"
  op: "Const"
  attr {
    key: "dtype"
    value {
      type: DT_FLOAT
    }
  }
  attr {
    key: "value"
    value {
      tensor {
        dtype: DT_FLOAT
        tensor_shape {
        }
        float_val: 0.0
      }
    }
  }
}
node {
  name: "accuracy/Greater"
  op: "Greater"
  input: "accuracy/count/read"
  input: "accuracy/zeros_like"
  attr {
    key: "T"
    value {
      type: DT_FLOAT
    }
  }
}
node {
  name: "accuracy/value"
  op: "Select"
  input: "accuracy/Greater"
  input: "accuracy/truediv"
  input: "accuracy/zeros_like"
  attr {
    key: "T"
    value {
      type: DT_FLOAT
    }
  }
}
node {
  name: "accuracy/truediv_1"
  op: "RealDiv"
  input: "accuracy/AssignAdd"
  input: "accuracy/AssignAdd_1"
  attr {
    key: "T"
    value {
      type: DT_FLOAT
    }
  }
}
node {
  name: "accuracy/zeros_like_1"
  op: "Const"
  attr {
    key: "dtype"
    value {
      type: DT_FLOAT
    }
  }
  attr {
    key: "value"
    value {
      tensor {
        dtype: DT_FLOAT
        tensor_shape {
        }
        float_val: 0.0
      }
    }
  }
}
node {
  name: "accuracy/Greater_1"
  op: "Greater"
  input: "accuracy/AssignAdd_1"
  input: "accuracy/zeros_like_1"
  attr {
    key: "T"
    value {
      type: DT_FLOAT
    }
  }
}
node {
  name: "accuracy/update_op"
  op: "Select"
  input: "accuracy/Greater_1"
  input: "accuracy/truediv_1"
  input: "accuracy/zeros_like_1"
  attr {
    key: "T"
    value {
      type: DT_FLOAT
    }
  }
}
node {
  name: "in_top_k/InTopKV2/k"
  op: "Const"
  attr {
    key: "dtype"
    value {
      type: DT_INT64
    }
  }
  attr {
    key: "value"
    value {
      tensor {
        dtype: DT_INT64
        tensor_shape {
        }
        int64_val: 5
      }
    }
  }
}
node {
  name: "in_top_k/InTopKV2"
  op: "InTopKV2"
  input: "output"
  input: "Squeeze"
  input: "in_top_k/InTopKV2/k"
  attr {
    key: "T"
    value {
      type: DT_INT64
    }
  }
}
node {
  name: "ToFloat_1"
  op: "Cast"
  input: "in_top_k/InTopKV2"
  attr {
    key: "DstT"
    value {
      type: DT_FLOAT
    }
  }
  attr {
    key: "SrcT"
    value {
      type: DT_BOOL
    }
  }
}
node {
  name: "recall_at_5/total/Initializer/zeros"
  op: "Const"
  attr {
    key: "_class"
    value {
      list {
        s: "loc:@recall_at_5/total"
      }
    }
  }
  attr {
    key: "dtype"
    value {
      type: DT_FLOAT
    }
  }
  attr {
    key: "value"
    value {
      tensor {
        dtype: DT_FLOAT
        tensor_shape {
        }
        float_val: 0.0
      }
    }
  }
}
node {
  name: "recall_at_5/total"
  op: "VariableV2"
  attr {
    key: "_class"
    value {
      list {
        s: "loc:@recall_at_5/total"
      }
    }
  }
  attr {
    key: "container"
    value {
      s: ""
    }
  }
  attr {
    key: "dtype"
    value {
      type: DT_FLOAT
    }
  }
  attr {
    key: "shape"
    value {
      shape {
      }
    }
  }
  attr {
    key: "shared_name"
    value {
      s: ""
    }
  }
}
node {
  name: "recall_at_5/total/Assign"
  op: "Assign"
  input: "recall_at_5/total"
  input: "recall_at_5/total/Initializer/zeros"
  attr {
    key: "T"
    value {
      type: DT_FLOAT
    }
  }
  attr {
    key: "_class"
    value {
      list {
        s: "loc:@recall_at_5/total"
      }
    }
  }
  attr {
    key: "use_locking"
    value {
      b: true
    }
  }
  attr {
    key: "validate_shape"
    value {
      b: true
    }
  }
}
node {
  name: "recall_at_5/total/read"
  op: "Identity"
  input: "recall_at_5/total"
  attr {
    key: "T"
    value {
      type: DT_FLOAT
    }
  }
  attr {
    key: "_class"
    value {
      list {
        s: "loc:@recall_at_5/total"
      }
    }
  }
}
node {
  name: "recall_at_5/count/Initializer/zeros"
  op: "Const"
  attr {
    key: "_class"
    value {
      list {
        s: "loc:@recall_at_5/count"
      }
    }
  }
  attr {
    key: "dtype"
    value {
      type: DT_FLOAT
    }
  }
  attr {
    key: "value"
    value {
      tensor {
        dtype: DT_FLOAT
        tensor_shape {
        }
        float_val: 0.0
      }
    }
  }
}
node {
  name: "recall_at_5/count"
  op: "VariableV2"
  attr {
    key: "_class"
    value {
      list {
        s: "loc:@recall_at_5/count"
      }
    }
  }
  attr {
    key: "container"
    value {
      s: ""
    }
  }
  attr {
    key: "dtype"
    value {
      type: DT_FLOAT
    }
  }
  attr {
    key: "shape"
    value {
      shape {
      }
    }
  }
  attr {
    key: "shared_name"
    value {
      s: ""
    }
  }
}
node {
  name: "recall_at_5/count/Assign"
  op: "Assign"
  input: "recall_at_5/count"
  input: "recall_at_5/count/Initializer/zeros"
  attr {
    key: "T"
    value {
      type: DT_FLOAT
    }
  }
  attr {
    key: "_class"
    value {
      list {
        s: "loc:@recall_at_5/count"
      }
    }
  }
  attr {
    key: "use_locking"
    value {
      b: true
    }
  }
  attr {
    key: "validate_shape"
    value {
      b: true
    }
  }
}
node {
  name: "recall_at_5/count/read"
  op: "Identity"
  input: "recall_at_5/count"
  attr {
    key: "T"
    value {
      type: DT_FLOAT
    }
  }
  attr {
    key: "_class"
    value {
      list {
        s: "loc:@recall_at_5/count"
      }
    }
  }
}
node {
  name: "recall_at_5/Size"
  op: "Const"
  attr {
    key: "dtype"
    value {
      type: DT_INT32
    }
  }
  attr {
    key: "value"
    value {
      tensor {
        dtype: DT_INT32
        tensor_shape {
        }
        int_val: 250
      }
    }
  }
}
node {
  name: "recall_at_5/ToFloat_1"
  op: "Cast"
  input: "recall_at_5/Size"
  attr {
    key: "DstT"
    value {
      type: DT_FLOAT
    }
  }
  attr {
    key: "SrcT"
    value {
      type: DT_INT32
    }
  }
}
node {
  name: "recall_at_5/Const"
  op: "Const"
  attr {
    key: "dtype"
    value {
      type: DT_INT32
    }
  }
  attr {
    key: "value"
    value {
      tensor {
        dtype: DT_INT32
        tensor_shape {
          dim {
            size: 1
          }
        }
        int_val: 0
      }
    }
  }
}
node {
  name: "recall_at_5/Sum"
  op: "Sum"
  input: "ToFloat_1"
  input: "recall_at_5/Const"
  attr {
    key: "T"
    value {
      type: DT_FLOAT
    }
  }
  attr {
    key: "Tidx"
    value {
      type: DT_INT32
    }
  }
  attr {
    key: "keep_dims"
    value {
      b: false
    }
  }
}
node {
  name: "recall_at_5/AssignAdd"
  op: "AssignAdd"
  input: "recall_at_5/total"
  input: "recall_at_5/Sum"
  attr {
    key: "T"
    value {
      type: DT_FLOAT
    }
  }
  attr {
    key: "_class"
    value {
      list {
        s: "loc:@recall_at_5/total"
      }
    }
  }
  attr {
    key: "use_locking"
    value {
      b: false
    }
  }
}
node {
  name: "recall_at_5/AssignAdd_1"
  op: "AssignAdd"
  input: "recall_at_5/count"
  input: "recall_at_5/ToFloat_1"
  input: "^ToFloat_1"
  attr {
    key: "T"
    value {
      type: DT_FLOAT
    }
  }
  attr {
    key: "_class"
    value {
      list {
        s: "loc:@recall_at_5/count"
      }
    }
  }
  attr {
    key: "use_locking"
    value {
      b: false
    }
  }
}
node {
  name: "recall_at_5/truediv"
  op: "RealDiv"
  input: "recall_at_5/total/read"
  input: "recall_at_5/count/read"
  attr {
    key: "T"
    value {
      type: DT_FLOAT
    }
  }
}
node {
  name: "recall_at_5/zeros_like"
  op: "Const"
  attr {
    key: "dtype"
    value {
      type: DT_FLOAT
    }
  }
  attr {
    key: "value"
    value {
      tensor {
        dtype: DT_FLOAT
        tensor_shape {
        }
        float_val: 0.0
      }
    }
  }
}
node {
  name: "recall_at_5/Greater"
  op: "Greater"
  input: "recall_at_5/count/read"
  input: "recall_at_5/zeros_like"
  attr {
    key: "T"
    value {
      type: DT_FLOAT
    }
  }
}
node {
  name: "recall_at_5/value"
  op: "Select"
  input: "recall_at_5/Greater"
  input: "recall_at_5/truediv"
  input: "recall_at_5/zeros_like"
  attr {
    key: "T"
    value {
      type: DT_FLOAT
    }
  }
}
node {
  name: "recall_at_5/truediv_1"
  op: "RealDiv"
  input: "recall_at_5/AssignAdd"
  input: "recall_at_5/AssignAdd_1"
  attr {
    key: "T"
    value {
      type: DT_FLOAT
    }
  }
}
node {
  name: "recall_at_5/zeros_like_1"
  op: "Const"
  attr {
    key: "dtype"
    value {
      type: DT_FLOAT
    }
  }
  attr {
    key: "value"
    value {
      tensor {
        dtype: DT_FLOAT
        tensor_shape {
        }
        float_val: 0.0
      }
    }
  }
}
node {
  name: "recall_at_5/Greater_1"
  op: "Greater"
  input: "recall_at_5/AssignAdd_1"
  input: "recall_at_5/zeros_like_1"
  attr {
    key: "T"
    value {
      type: DT_FLOAT
    }
  }
}
node {
  name: "recall_at_5/update_op"
  op: "Select"
  input: "recall_at_5/Greater_1"
  input: "recall_at_5/truediv_1"
  input: "recall_at_5/zeros_like_1"
  attr {
    key: "T"
    value {
      type: DT_FLOAT
    }
  }
}
node {
  name: "eval/Accuracy/tags"
  op: "Const"
  attr {
    key: "dtype"
    value {
      type: DT_STRING
    }
  }
  attr {
    key: "value"
    value {
      tensor {
        dtype: DT_STRING
        tensor_shape {
        }
        string_val: "eval/Accuracy"
      }
    }
  }
}
node {
  name: "eval/Accuracy"
  op: "ScalarSummary"
  input: "eval/Accuracy/tags"
  input: "accuracy/value"
  attr {
    key: "T"
    value {
      type: DT_FLOAT
    }
  }
}
node {
  name: "Print"
  op: "Print"
  input: "eval/Accuracy"
  input: "accuracy/value"
  attr {
    key: "T"
    value {
      type: DT_STRING
    }
  }
  attr {
    key: "U"
    value {
      list {
        type: DT_FLOAT
      }
    }
  }
  attr {
    key: "first_n"
    value {
      i: -1
    }
  }
  attr {
    key: "message"
    value {
      s: "eval/Accuracy"
    }
  }
  attr {
    key: "summarize"
    value {
      i: 3
    }
  }
}
node {
  name: "eval/Recall_5/tags"
  op: "Const"
  attr {
    key: "dtype"
    value {
      type: DT_STRING
    }
  }
  attr {
    key: "value"
    value {
      tensor {
        dtype: DT_STRING
        tensor_shape {
        }
        string_val: "eval/Recall_5"
      }
    }
  }
}
node {
  name: "eval/Recall_5"
  op: "ScalarSummary"
  input: "eval/Recall_5/tags"
  input: "recall_at_5/value"
  attr {
    key: "T"
    value {
      type: DT_FLOAT
    }
  }
}
node {
  name: "Print_1"
  op: "Print"
  input: "eval/Recall_5"
  input: "recall_at_5/value"
  attr {
    key: "T"
    value {
      type: DT_STRING
    }
  }
  attr {
    key: "U"
    value {
      list {
        type: DT_FLOAT
      }
    }
  }
  attr {
    key: "first_n"
    value {
      i: -1
    }
  }
  attr {
    key: "message"
    value {
      s: "eval/Recall_5"
    }
  }
  attr {
    key: "summarize"
    value {
      i: 3
    }
  }
}
versions {
  producer: 26
}
